models/p300_reps3_fast_halo.pt (torch, 50609 bytes, 18 tensors)

weight f4 [8, 1, 1, 125]
00000000: c8f6 b2ba d7b0 82bd 4213 59bd 25e6 04bd
00000010: f1de 183d b55d ab3d fbed 7b3d e724 643c
00000020: 7d14 c8bc 7837 313b b45a d83d 272c 493e
00000030: d8f3 073e e1d4 94bd 6c7b 94be 5a65 c7be
00000040: e368 7fbe 0aea 973d 7583 c53e 085e fd3e
00000050: 94e8 b13e d412 313d 3667 6bbe f807 adbe
00000060: 93a6 7bbe ec06 22bd 41f7 0e3e ff15 423e
00000070: 0766 ca3d 1820 5fbd fd59 2dbe 5b21 1cbe
00000080: bd31 7bbd 1148 563d 418f 033e ab8c ec3d
00000090: d579 093d e490 8dbd 52ad 00be 1f52 22be
000000a0: bc84 c6bd bb0a 083c 6c6a c13d 049b 063e
000000b0: b164 ba3d 9cd6 df3b f8f4 94bd 967b 19be
000000c0: 0848 23be c48e ccbd efca 04bb ba3f e83d
000000d0: 39c9 453e cfa8 4f3e 8931 ff3d 4f80 7d3c
000000e0: 6add e6bd e7f4 40be 86e7 2cbe 52df cabd
000000f0: 5dba 11bb f2f1 943d 8d66 e63d ee38 c93d
00000100: 56c3 913d e3ca 043d 1140 cbbc 3ddc a2bd
00000110: f39a e2bd cc61 dfbd e704 a4bd 9fad 5b3c
00000120: 564e 033e 0937 8a3e 2c09 d93e 3928 103f
00000130: 7ede 013f b2c2 563e a165 79be 146d 31bf
00000140: e16b 61bf a2d2 46bf 8c3f ddbe 2e0f 86bd
00000150: 93fa 5d3e 0d93 a83e ef65 a03e 6ce7 a53e
00000160: aa8e b13e 8b20 be3e 7c5a ae3e 99e3 ab3e
00000170: 69f1 5d3e 80da 0a3c 7db6 67be 7979 92be
00000180: 3255 6abe 49da d0bd 2882 e5bb 4eb0 1fbb
00000190: afaf 52bd 6627 f0bd cf37 24be bba6 67be
000001a0: b72e 0cbe 1766 423d e075 463e 2ea6 903e
000001b0: 2a64 793e 5125 bc3d b022 a0bd b0bc 31be
000001c0: edc4 36be 0d20 b2bd 2336 483c a08c b73d
000001d0: d669 073e 4a65 c63d 3c1f 833c 5aa2 d5bc
000001e0: 60e0 27bd 2d31 13bd ab2e a2bb 3edb b1bc
000001f0: fc75 22bd b978 34bd 9762 89bc 1fe9 143c
00000200: 936e 063d a1ac 563d d6d4 873d c79d 943d
00000210: 4928 a33d fc26 9f3d a6b8 913d a796 873d
00000220: 040d 873d 2a0d 8a3d f326 883d cb48 743d
00000230: 82be 433d c298 f43c f224 1a3c 7ddd 1cbc
00000240: 7d17 e8bc d4ec 26bd 04ff 45bd 94eb 60bd
00000250: 8baa 86bd 78c9 a5bd 18eb cdbd 1326 fdbd
00000260: e166 21be 8d0c 3abe bf27 49be b074 52be
00000270: 34e5 59be 3d21 58be c6c0 4abe 24fa 31be
00000280: af8b 16be 66c1 e7bd 1f92 9abd 5bc5 15bd
00000290: 6fc1 a03b b6ff 313d 2b99 9f3d 0fb9 dd3d
000002a0: b96a 0f3e 3e50 2a3e 5900 403e 7659 503e
000002b0: 77f4 653e 6ebd 753e 3f10 813e 330d 873e
000002c0: 71bd 903e 9dd3 963e 9088 963e f8ff 8e3e
000002d0: 24b3 843e 0649 703e 524b 583e 9d1c 423e
000002e0: 4dab 2a3e 00bf 093e c9b7 b93d 345d 193d
000002f0: 7c3c b3bc 003a a2bd f1c6 01be 46ec 21be
00000300: 28c5 34be b747 38be a3a1 32be 4318 2abe
00000310: 666b 28be 6a8c 24be fcab 1fbe 0298 1bbe
00000320: 148e 19be a223 19be bebf 18be 9ecc 15be
00000330: a3df 0ebe 252e 05be 1255 f6bd 9cbc e4bd
00000340: 3217 d9bd d66e bfbd d0ec 93bd 25b4 37bd
00000350: f100 b5bc 944a 80ba 4c7b 8c3c eae4 0b3d
00000360: 35f9 1c3d e75e 3e3d a0bd 653d dd0f 813d
00000370: c0f6 803d 0714 703d 3cc2 573d 1d6b 3c3d
00000380: 716d 253d 0dc5 013d 72fb a33c 1e5a aa3b
00000390: 1a60 45bc 8d32 edbc 4d31 38bd aacf 74bd
000003a0: 512a 8fbd 2f3e 99bd f9f0 91bd 077d 71bd
000003b0: c111 27bd 0a37 c4bc eca3 1bbc aec0 553b
000003c0: bed3 b43c c001 ef3c 4c1c cc3c d686 4c3c
000003d0: dd26 a93b 3820 0abc 6542 cdbc 096d 27bd
000003e0: f516 2ebd bcd5 35bd 6940 8c3d cc28 6b3d
000003f0: 1d6c 433d c5ae 313d 9599 283d a015 1e3d
-0.0013653869 -0.06381386 -0.05299688 -0.032446045 0.03732199 0.083674826 0.061506253 0.013924814
-0.024423832 0.0027041119 0.10564175 0.19645749 0.13276613 -0.07267166 -0.29000413 -0.38944513
-0.24942355 0.07417686 0.38576856 0.49485803 0.34747756 0.043230847 -0.2298859 -0.33795142
-0.24575262 -0.039557382 0.13961507 0.18953703 0.098827414 -0.054473966 -0.16928859 -0.15247099
-0.06132673 0.05231482 0.12847616 0.11550268 0.033563454 -0.06912401 -0.12566116 -0.15851639
-0.09693286 0.00830334 0.094441265 0.13145071 0.091012366 0.0068310034 -0.072732866 -0.1498855
-0.15945446 -0.09988168 -0.002026256 0.1134028 0.19315042 0.20279239 0.1246062 0.015472486
-0.112727 -0.18843423 -0.16885194 -0.09905876 -0.0022236325 0.0727271 0.11250029 0.098253116
0.071173355 0.03242005 -0.024810823 -0.07952163 -0.110647105 -0.10907325 -0.080087475 0.013408094
0.12822852 0.26995113 0.4238981 0.56311375 0.5073012 0.20972708 -0.24355175 -0.69307065
-0.88055235 -0.7766515 -0.43212545 -0.06545864 0.21677618 0.3292469 0.3132777 0.32403123
0.34679157 0.37134203 0.3405341 0.3357208 0.21674122 0.008474946 -0.22628208 -0.286083
-0.22884062 -0.101978846 -0.007004041 -0.002436656 -0.051437076 -0.11726265 -0.16036914 -0.22622196
-0.13689695 0.04746064 0.19380903 0.28251785 0.24354616 0.09186805 -0.07819116 -0.17357135
-0.17848559 -0.086975195 0.012219938 0.08962369 0.13223967 0.09687288 0.016006105 -0.026078392
-0.040985465 -0.03593557 -0.004949411 -0.021710988 -0.0396633 -0.044060443 -0.016770644 0.0090887835
0.032820296 0.052410726 0.06632392 0.07256656 0.07966668 0.077711076 0.07115297 0.066205315
0.065942794 0.06740792 0.06648054 0.059639733 0.047789104 0.029857997 0.0094082225 -0.009574291
-0.028331513 -0.0407532 -0.048338905 -0.054912165 -0.06575497 -0.08095068 -0.10054606 -0.12360778
-0.15761901 -0.1816885 -0.19644068 -0.20552325 -0.2127884 -0.2110643 -0.198001 -0.17380577
-0.14701723 -0.11316185 -0.07547402 -0.036565166 0.0049058716 0.043456756 0.07792886 0.10826313
0.14005555 0.16632172 0.18750133 0.20346627 0.22456537 0.23998043 0.25207707 0.26377258
0.28269532 0.29458323 0.29401064 0.27929664 0.25917923 0.23465356 0.21122482 0.18956228
0.16666909 0.13451767 0.09068257 0.0374424 -0.021879427 -0.07921219 -0.12673546 -0.15812787
-0.17653334 -0.17996107 -0.17444472 -0.16610818 -0.16447219 -0.16069189 -0.1559295 -0.15194705
-0.14995605 -0.14954999 -0.14916894 -0.14628837 -0.13952498 -0.13005884 -0.120279446 -0.11168787
-0.10600127 -0.09347312 -0.07222903 -0.044849534 -0.022095175 -0.0009787851 0.017148636 0.034153856
0.0383236 0.046477225 0.056089044 0.06301854 0.06297064 0.05861285 0.05267547 0.04600059
0.040387575 0.031682063 0.02001736 0.005198731 -0.012046838 -0.028954769 -0.044968892 -0.059768356
-0.06990493 -0.07482564 -0.0712604 -0.058957126 -0.040788416 -0.023952026 -0.009499531 0.0032616067
0.022073623 0.02917564 0.024915837 0.012483319 0.0051621036 -0.008430533 -0.025056073 -0.04087547
-0.042502362 -0.044393286 0.06848223 0.057411954 0.047710527 0.043379564 0.041162092 0.038594842

weight f4 [8]
00000000: 355c db3e 3cba d43e d6e5 ce3e e119 1bba
00000010: a0f5 c83e 165f b439 9ca4 a6bb 02d3 b03e
0.42843786 0.41548336 0.40409726 -0.0005916637 0.39249897 0.0003440312 -0.005085541 0.34535986

bias f4 [8]
00000000: 2e12 1bb7 5cf3 183a 8564 acb9 a500 5e35
00000010: fbe9 59b9 bd7a 6a38 e6e0 25b6 5ba4 f0b8
-9.242953e-06 0.0005834603 -0.0003288129 8.270238e-07 -0.00020781897 5.5904256e-05 -2.4717824e-06 -0.000114747054

running_mean f4 [8]
00000000: e654 2bbb e6eb 8b3d 2145 f0bd 4f29 d9b5
00000010: 60a0 92bb a813 12b8 d1f3 24b8 a568 9abb
-0.0026143133 0.068321034 -0.11731935 -1.6179782e-06 -0.0044746846 -3.482742e-05 -3.932772e-05 -0.0047121816

running_var f4 [8]
00000000: 6e33 2840 a18b 2141 4068 5241 d79f 4430
00000010: 8535 0541 33fa 9237 f5a7 7639 cd73 e240
2.628139 10.096589 13.150452 7.153153e-10 8.325566 1.7521064e-05 0.00023522957 7.076636

weight f4 [16, 1, 2, 1]
00000000: 3508 bdbe 1457 b1bc 9960 ce3d d355 febe
00000010: bead b53c a98a c83e ae0d 92bd e9b9 d0be
00000020: 27c1 bcbe 3ce3 9b3e db3e 563e 3086 5b3e
00000030: bb33 ef95 cdb9 4c93 5685 7536 7a0d 76b6
00000040: 1bc9 43be 7463 f53e e27f 8abe 743d 77be
00000050: b254 25b4 f592 b1b5 ea7a 5936 6bd0 6a35
00000060: 9a76 1eaf 03b2 fa30 c8c1 8db4 2475 9636
00000070: 8dd1 3d3e fa79 963e 1820 0b3e b6a3 a83e
-0.36920324 -0.021647967 0.10077018 -0.49674854 0.022177573 0.3916829 -0.071315154 -0.40766838
-0.36866114 0.30446804 0.20922415 0.21437907 -9.661295e-26 -2.5840027e-27 3.6585457e-06 -3.66647e-06
-0.19119684 0.4792744 -0.27050692 -0.24144536 -1.5397634e-07 -1.3230298e-06 3.2407065e-06 8.747508e-07
-1.4412152e-10 1.8240488e-09 -2.640429e-07 4.4839853e-06 0.18536969 0.29389936 0.13586462 0.32937402

weight f4 [16]
00000000: 4ad2 b63f 1a76 ed3f 106a 993f 8326 b43f
00000010: e619 7f3f 48a5 6b3f ef2a 4d18 337d 90b5
00000020: 1c0f c13f 2fc2 c13f 0fc6 ef35 5ad4 29b6
00000030: c0d6 c5b2 deaa 80b6 a686 8e3f 3cf7 863f
1.4282925 1.8551667 1.1985493 1.4074253 0.9964889 0.92049074 2.6517305e-24 -1.0765274e-06
1.5082736 1.5137385 1.786453e-06 -2.5306567e-06 -2.3031475e-08 -3.834589e-06 1.1134841 1.05442

bias f4 [16]
00000000: 77c5 12bf ddff 37bf 880a 09bf 787c ecbe
00000010: b2d6 d9be ee31 a4bd 7138 0d12 cb63 8436
00000020: e5c1 fcbe aaad 10bf 9d5e e8b4 595a da33
00000030: 7c7b d9b4 a5a6 74b6 c987 2ebe 49f3 25be
-0.5733256 -0.7187479 -0.53531694 -0.46188712 -0.42546612 -0.08017336 4.4561324e-28 3.945524e-06
-0.4936668 -0.5651499 -4.3282208e-07 1.016785e-07 -4.0509246e-07 -3.6455833e-06 -0.17043985 -0.16206087

running_mean f4 [16]
00000000: ddcf 05b8 67ae ff38 9c74 8c39 138f 8bb9
00000010: 5804 70ba a6ae 9237 c104 7c0d 7737 3ca9
00000020: d53e 29b9 a899 de37 8235 cc2b d61e b72b
00000030: 7ab2 4da3 e1a4 63ac 099e c8b7 b95e e8b7
-3.190326e-05 0.000121918325 0.00026789762 -0.00026618745 -0.00091559207 1.7485883e-05 7.765922e-31 -4.1792494e-14
-0.00016140503 2.6536014e-05 1.4509923e-12 1.3011491e-12 -1.1150866e-17 -3.2350166e-12 -2.3915449e-05 -2.7700664e-05

running_var f4 [16]
00000000: 7d4a 083d 56e4 033d 5e89 c83c 83f2 0a3d
00000010: 4160 1f3c cf36 da3c 3200 0000 fdcf 1219
00000020: 5786 a53c e109 1a3d 4640 6322 4b4d 4022
00000030: 3cad c519 e0e3 da23 f566 c43c a39d b63c
0.033274163 0.03220018 0.024479564 0.033922683 0.009727539 0.026637463 7e-44 7.590026e-24
0.02020566 0.037607078 3.0798263e-18 2.606177e-18 2.0439291e-23 2.3732116e-17 0.023974875 0.022291964

weight f4 [16, 1, 1, 31]
00000000: ba05 b7bd 2ae5 ec3b 7385 913d a168 aebd
00000010: 03d3 13be c4f2 263e 65f6 97bc c461 533d
00000020: 4086 99bc 5814 4e3e ddbc 703e 2b8a 00bd
00000030: d087 fcbd 3565 ff3c 8455 b1bd 9db6 36bb
00000040: b3d0 36be e531 ebbd 3f27 b2bd 2e2d c63c
00000050: 2d7c c8bc bab9 d83d e6eb d4be 5444 95be
00000060: 71d8 47be 7bb1 033e 9410 b4bd 3e4b cdbe
00000070: 46bb 81be f9bf 343e 2007 adbd 9494 24be
00000080: a575 2c3d df8c 40bb f3a0 48be 177e 3fbd
00000090: bb77 f53c 4ae1 933d 05ce 91bc 1b1b 1e3d
000000a0: 5ee0 3a3e 2011 223e 013f aebd 2545 2a3e
000000b0: 7743 b3bd 08de 1cbe 767d 01be c82d 6dbe
000000c0: 64f1 0dbe 4994 2ebe 975e e6bd 27bc 7bbc
000000d0: 25b2 b9bd 053c aebe a46f a0be 77b7 9bbe
000000e0: 455a 133e e03a 3d3e e2ef 2bbe 108e 5cbe
000000f0: 42b4 a9bd 19ec 06be 437e 42bc f019 b2bc
00000100: 17cf 19bd 12c9 83bd cc02 bebd 00d6 85bc
00000110: b6b6 0a3d 1a85 4e3c 6d68 be3c 9fb1 833c
00000120: 9d50 633d af56 5fbb b490 e1bd d749 01be
00000130: cacf ddbd 51f6 b3bc 9de9 96bd 219a 13be
00000140: f9ba 80be 8879 48be 0448 21be 5383 f1bd
00000150: cd76 57be 43bb 94be 279f 6ebe 181a 0abe
00000160: d605 0c3b 3c42 f0bd 2032 84be 98bf 9dbe
00000170: a45c 9fbe cba6 97bd d698 e7bd 51c4 b5bd
00000180: 6915 c73c 987a c63d d665 0a3c 04de 29bd
00000190: ace6 41bd c2e9 8d3d 6718 a53d 4b77 c93c
000001a0: 8f83 e23c 18ae a03d f83f 813d b00c 753b
000001b0: 0813 15bd 71c8 c6bb a36d 1a3e 8951 803e
000001c0: 508d 803e 49c2 3f3e 3df2 803e 278e a73e
000001d0: 16b7 c13e be95 a13e e86b 3b3e e1f2 af3d
000001e0: fb2a b13d e399 5a3d c990 233d 4023 433c
000001f0: b2c7 d23d f35f 48bd a927 fcbd 9c0a a7bd
00000200: 0958 78bd 71a9 35bd 014c 7d3c 0501 a33c
00000210: 09e2 003d e7fc 383d 7af8 973d 13a9 cd3d
00000220: c139 1b3d 14d8 f9ba 7a70 443d 7988 513d
00000230: c081 263d ddda 06bc a46c 293d bb6d cd3d
00000240: 61b9 503e 5669 b23e f9fd a43e b6aa 293e
00000250: 1fa1 77bd c603 27be 5884 51be 1024 38bd
00000260: 7270 82bc 08af 893d a81d 893e 152c 74bd
00000270: 3066 c03c d75f 293d 2eb4 793d 2050 fa3c
00000280: e744 0e3c b46a 973c 967d 2b3c ab33 273a
00000290: f8f1 2e3c b384 f3bc f83a bcbc 78ee 243d
000002a0: 0d37 943d f73e 3f3d 88e7 95bc f5f4 d0bc
000002b0: 0e24 08bd f4dd ecba 7e3d c1bb e08e 98bd
000002c0: 9109 20be 6b42 92be 1da3 cdbe b4eb c5be
000002d0: b7f8 a8be 9362 49be d0cf f8bd 6693 6dbb
000002e0: 03da df3d d8ef 273e 7d23 ee91 2bbc 1c11
000002f0: e898 e211 9fe6 9011 b55b 1a12 0669 0b92
00000300: d6e3 7292 a499 5392 69c6 8a92 4c77 c512
00000310: ef2e 3e92 b762 ae12 74f7 9611 49e3 bd92
00000320: cb7a 6092 9216 5f92 75ad 1492 3843 b591
00000330: b45b 8992 cdd9 1d93 6863 2c93 be55 fe92
00000340: d187 d691 9cc1 fa12 54fb 3792 600b 6d91
00000350: cde6 498e 6f3d 6111 7f7f 4f12 bace 7611
00000360: 2984 6b92 36cb 8d35 86d2 9b35 15a7 4536
00000370: d21b beb5 b010 4cb6 402f 70b6 5352 51b6
00000380: 7406 6db6 15b4 4eb6 9ed1 23b6 b2a9 3eb6
00000390: 63ab 73b6 cb43 73b6 4baf 7236 d13c 1536
000003a0: 40c2 59b6 c349 c8b4 e1ce 53b6 6be0 18b6
000003b0: 2d4f 72b6 efd4 5eb6 da09 58b6 6459 6db6
000003c0: b987 78b6 538f 5eb6 d81f 6cb6 e6f2 64b5
000003d0: ff34 4fb6 39cb 4eb6 efe1 77b6 1914 6ab6
000003e0: eec6 82bd cb60 edbd 6022 df3b d56c a33d
000003f0: 24f9 83bb b56b babd ee94 50bd 20f3 0e3d
-0.08936639 0.007229467 0.071055315 -0.0851605 -0.14435963 0.16303545 -0.018550107 0.05160691
-0.018740773 0.20124948 0.23509546 -0.031381767 -0.12330592 0.031176189 -0.08658889 -0.0027879842
-0.1785305 -0.11484126 -0.08698892 0.024191465 -0.024473274 0.105822995 -0.41586226 -0.29153693
-0.1951616 0.12860672 -0.087922245 -0.40096468 -0.2533819 0.17651357 -0.084486246 -0.16072303
0.042104382 -0.002938084 -0.19592647 -0.046751108 0.029964318 0.07220705 -0.017798433 0.03860007
0.18249652 0.15826845 -0.08508111 0.16627939 -0.08753102 -0.15319073 -0.12645516 -0.23161995
-0.13861614 -0.17048754 -0.1124851 -0.015364683 -0.090671815 -0.34030166 -0.31335175 -0.3041341
0.14389904 0.1847949 -0.16790727 -0.21538568 -0.082863346 -0.13176002 -0.011870923 -0.021740884
-0.037551012 -0.064348355 -0.09277877 -0.016337395 0.033865653 0.012604976 0.023243153 0.016075907
0.0554968 -0.0034078767 -0.11013928 -0.12625824 -0.10830648 -0.021968039 -0.07368777 -0.14414264
-0.2514265 -0.1957761 -0.15750128 -0.11792626 -0.21041413 -0.2904912 -0.233029 -0.13486516
0.0021365783 -0.11731383 -0.25819492 -0.30810237 -0.31125367 -0.0740486 -0.11308448 -0.08875335
0.024302201 0.09691352 0.008447131 -0.041471496 -0.047339126 0.069293514 0.08061295 0.024593016
0.027650623 0.07845706 0.06311029 0.0037391596 -0.036395103 -0.006066375 0.15080886 0.25062206
0.25107813 0.18726458 0.25184813 0.3272564 0.37834996 0.31559557 0.18302882 0.08591247
0.08650776 0.053369414 0.039933 0.01191026 0.10291995 -0.04891963 -0.12312252 -0.081563205
-0.060630832 -0.044351045 0.015460015 0.019897947 0.031465564 0.04516306 0.0742044 0.10042014
0.037896875 -0.0019061589 0.04795883 0.05115554 0.040651083 -0.008230892 0.041363373 0.10030695
0.20383216 0.3484599 0.32225016 0.16569027 -0.06045639 -0.16310033 -0.20460641 -0.044956267
-0.015922759 0.06722838 0.26780438 -0.059612352 0.023486227 0.041351166 0.06096285 0.030555785
0.00868342 0.018483497 0.010466954 0.00063782436 0.010677807 -0.029726362 -0.022977337 0.040266484
0.072370626 0.046690907 -0.01829888 -0.02550743 -0.03323751 -0.0018071518 -0.005897223 -0.07449126
-0.1562865 -0.28566298 -0.40163508 -0.3865639 -0.33002254 -0.1966651 -0.12149012 -0.0036251186
0.10930254 0.16400087 -3.757165e-28 1.2364214e-28 3.5750749e-28 2.2861325e-28 4.870687e-28 -4.399012e-28
-7.6642565e-28 -6.6769237e-28 -8.757936e-28 1.2461857e-27 -6.001128e-28 1.1005279e-27 2.3818332e-28 -1.1983607e-27
-7.083329e-28 -7.0394213e-28 -4.691437e-28 -2.8598192e-28 -8.668522e-28 -1.992357e-27 -2.1758463e-27 -1.6050791e-27
-3.384695e-28 1.58249465e-27 -5.8054404e-28 -1.8699509e-28 -2.488629e-30 1.7768301e-28 6.5474834e-28 1.9469681e-28
-7.4315825e-28 1.0564461e-06 1.160967e-06 2.9452542e-06 -1.41642e-06 -3.0408082e-06 -3.579029e-06 -3.1191346e-06
-3.5319508e-06 -3.0801214e-06 -2.4410906e-06 -2.8410982e-06 -3.6309582e-06 -3.6249282e-06 3.6162844e-06 2.223813e-06
-3.2448588e-06 -3.7306572e-07 -3.156187e-06 -2.2780393e-06 -3.6106896e-06 -3.3204522e-06 -3.2192243e-06 -3.5367784e-06
-3.703388e-06 -3.3164004e-06 -3.5185276e-06 -8.529008e-07 -3.0876251e-06 -3.0814683e-06 -3.6937379e-06 -3.4880416e-06
-0.06385599 -0.115907274 0.0068095177 0.079797424 -0.0040275026 -0.09102575 -0.05092328 0.03489983

weight f4 [16, 16, 1, 1]
00000000: f4c6 1ebe e1d6 5dbe baac 7e3e 077b 91be
00000010: e31b ccbd 4806 2d3e cf0d 1996 0dd1 7ab6
00000020: 43a8 96bd 60d0 9a3d a2db 6cb6 7639 c335
00000030: 2316 3eb6 1259 2e36 2db2 003e a388 2dbd
00000040: 3fb4 43be 48f1 fdbd 1001 cabd 71ef 643d
00000050: 2c9b 90bd e749 3b3d 6ae4 2e94 66cc 57b6
00000060: a2fa 8e3e c826 8bbe 83d4 6ab6 efc1 0cb3
00000070: 382f 2fb6 c640 71b6 e849 173d 02e2 bfbc
00000080: cfcd 4fbe 91d3 25be e603 02be d02f bb3d
00000090: db62 143c f83a 903d 06d3 a094 88e6 b735
000000a0: 626a 823e f09d 82be 0736 42b6 2291 3036
000000b0: 885b 3a36 e7a5 30b6 2c63 023d 093c c93b
000000c0: 360f 593d b759 163d cedd fc3d efaf 7dbd
000000d0: bfd0 463e a055 803e c74f 2392 07be 4ab6
000000e0: f9cf fabc 4d70 a539 c066 ddb5 0061 c935
000000f0: 3adc 2236 5e37 9534 4e59 5c3e 973e 833e
00000100: 14d7 52be b88d 4ebe 94b4 573e b1d7 7abe
00000110: b022 8bbd b43a 6b3e 87f1 ea17 3b7f 37b6
00000120: e880 98bd 7c58 bb3d 86a6 7c34 0248 42b6
00000130: ddd4 e3b5 5c8e fab3 823b 933d 0412 2fbd
00000140: 6a01 04be e055 0fbe ddf4 c6bd f0b9 e53d
00000150: 119d 2cbd b6f2 aeb8 860e 4514 1487 62b6
00000160: a146 8d3e 3e4a 8fbe 4b26 dbb5 7822 5536
00000170: 6512 2db6 c349 10b6 ce65 613c ddf6 43bd
00000180: bfec f9bd 38c3 06be 6cf8 0abe b668 c73d
00000190: 7e2b 8fbd 7f00 983c 3187 4b12 6447 6cb6
000001a0: 79a5 833e bc11 95be fb23 f4b5 0164 b835
000001b0: 8d6b 0033 6584 c3b5 00ea 87bc 5618 10bb
000001c0: cd8e e13d 4adb 973d a3f0 453e 0f84 63bd
000001d0: 4e58 f83d 7c70 213e 2bf2 d913 8490 65b6
000001e0: a67f 64bb 0d3f c43b afc4 a5b5 ed98 76b6
000001f0: fcb9 0cb6 baa8 f635 e459 583e 756e a03e
00000200: 6da8 12be 6f42 3dbe 797a aebd f9b1 9d3d
00000210: 29e7 eebc ef9c 8b3d 97da a793 f1f5 73b6
00000220: 0daf 7d3e 8ca9 6dbe 22b7 6bb6 e4b3 5cb5
00000230: 9869 6c35 2300 65b6 518c 603d ee2a 70bd
00000240: 9d7c 25be 7f2a 88be df50 643e c4a0 96be
00000250: c91e a9bd 7dbe 293e 0c57 3398 f21d 5db6
00000260: a406 b2bd 6511 9d3d e74d 1db5 96cf 31b6
00000270: 2bb5 a335 4334 6e36 e8aa 013e a483 24bd
00000280: df3c 7abd d5ae f2bd 146c efbd fd8b bd3d
00000290: df23 b5bd 3bd7 e5bc a24b 3c92 08fa 4fb6
000002a0: 87d3 963e 8f9a 86be ada7 b1b4 8105 50b6
000002b0: e3e4 4035 2a71 2fb6 412d d83c c8ff 6bbd
000002c0: b452 14be 8788 5bbe 67e9 533e e361 8cbe
000002d0: cefe d6bd 0f55 3d3e fcf7 fd95 a128 64b6
000002e0: 7abc 0cbe c6be c13d 9c5d 44b6 c6b5 9eb5
000002f0: cc6a d635 44ce edb5 cf48 f63d cd43 51bd
00000300: 0b61 893d 261d 963d 8677 023e 4c1b 39bd
00000310: f6a0 5f3e 4e6c 403e f0ed 8193 396b d634
00000320: c144 4bbd 9134 f73c 283f 12b6 aec3 77b6
00000330: 9ba6 0236 2f0a 64b6 1ee4 573e ffdf 843e
00000340: b5f1 f73c 5dca 063d a01c 0e3e 103a 3ebd
00000350: 0487 f93d afbd a43e 661b 3114 fdef 61b6
00000360: 79af 34bd 96d9 2d3d 3fbd 32b6 d41a 6e36
00000370: 98a7 88b6 e31e 65b6 c046 5c3e 2473 063e
00000380: c4c9 9f3d 9286 5a3d abc5 2e3e 7b3d 15bb
00000390: b569 2d3e 2e00 243e 20d8 d191 c70f 3e35
000003a0: ef4c 59bb ac37 8bbc 49a7 b4b5 58e4 e835
000003b0: c788 03b6 c22f 72b6 1738 513e 2737 963e
000003c0: 9c5a 69be 27f9 5fbe b3ff 513e 033d 62be
000003d0: c12f 0bbe 221c 293e 2a97 1c16 944a 62b6
000003e0: c362 93bd a06e b03d e344 0c36 0f8b 1036
000003f0: c183 dc35 9ea9 76b6 1c25 053e 796f 66bd
-0.15505582 -0.21664001 0.24870577 -0.28414175 -0.099662565 0.16896927 -1.2363599e-25 -3.7374587e-06
-0.07356312 0.075592756 -3.5294584e-06 1.4545355e-06 -2.8325092e-06 2.5979866e-06 0.12567969 -0.042366635
-0.19111727 -0.12399536 -0.09863484 0.05589241 -0.07060847 0.045724776 -8.829802e-27 -3.2156472e-06
0.27925593 -0.27178025 -3.4992415e-06 -3.277267e-08 -2.6104517e-06 -3.5949502e-06 0.036935717 -0.023423199
-0.20293353 -0.16193987 -0.126968 0.09139979 0.009056772 0.070424974 -1.6239105e-26 1.3701656e-06
0.2547179 -0.25511122 -2.89397e-06 2.6310522e-06 2.7769438e-06 -2.6322612e-06 0.03183286 0.00614119
0.052993022 0.036706652 0.123469934 -0.06193536 0.19415568 0.25065327 -5.1532064e-28 -3.0210956e-06
-0.030616747 0.00031554923 -1.6495687e-06 1.5003898e-06 2.426807e-06 2.7793698e-07 0.21518442 0.2563369
-0.20589858 -0.20171249 0.21064979 -0.24496342 -0.067937255 0.22971612 1.5182866e-24 -2.7343183e-06
-0.07446462 0.091477364 2.352991e-07 -2.8950167e-06 -1.6974769e-06 -1.1667427e-07 0.071890846 -0.04274179
-0.12891164 -0.13997602 -0.09714673 0.112171054 -0.042141978 -8.342175e-05 9.9488225e-27 -3.375525e-06
0.27592948 -0.2798633 -1.6327916e-06 3.1759537e-06 -2.5789716e-06 -2.1500607e-06 0.013757182 -0.04784285
-0.12203359 -0.13160408 -0.13571328 0.09736769 -0.06990717 0.018554924 6.422214e-28 -3.5208295e-06
0.25712183 -0.29115093 -1.8189888e-06 1.3738173e-06 2.990014e-08 -1.4567164e-06 -0.016591072 -0.0021987162
0.11013565 0.07414873 0.19330077 -0.055545863 0.12126218 0.15765566 5.5017297e-27 -3.4207778e-06
-0.0034866123 0.0059889616 -1.23507e-06 -3.674587e-06 -2.0969883e-06 1.8377534e-06 0.2112804 0.31334272
-0.14322062 -0.18482374 -0.085194536 0.07699961 -0.02916296 0.06817042 -4.2372273e-27 -3.6352978e-06
0.24773808 -0.23209208 -3.5124326e-06 -8.221816e-07 8.807051e-07 -3.4123739e-06 0.054821316 -0.05863469
-0.16160817 -0.26594922 0.22296475 -0.2941953 -0.08257825 0.16576572 -2.3179155e-24 -3.2948997e-06
-0.08692673 0.07669333 -5.860042e-07 -2.6495886e-06 1.2197173e-06 3.5495184e-06 0.12662852 -0.040164605
-0.061093207 -0.11849753 -0.11690536 0.09255216 -0.088447325 -0.028056731 -5.9415565e-28 -3.099094e-06
0.29458258 -0.26289794 -3.309082e-07 -3.099762e-06 7.185865e-07 -2.6142902e-06 0.026388766 -0.05761698
-0.14484674 -0.214388 0.20694505 -0.27418432 -0.10497819 0.18489479 -1.02577137e-25 -3.3998297e-06
-0.13743773 0.09460215 -2.9260764e-06 -1.182482e-06 1.5975324e-06 -1.7717907e-06 0.12025606 -0.05109005
0.067079626 0.073297784 0.12740907 -0.045192048 0.21838745 0.18791315 -3.2798803e-27 3.993862e-07
-0.049626116 0.030176433 -2.1792457e-06 -3.6919769e-06 1.9468487e-06 -3.3980575e-06 0.21083114 0.25952145
0.030266622 0.032907832 0.13878107 -0.04644209 0.12183955 0.32175967 8.94162e-27 -3.3667304e-06
-0.044112656 0.042443834 -2.6634223e-06 3.548038e-06 -4.0726263e-06 -3.4141638e-06 0.21511364 0.1312986
0.078021556 0.053350993 0.17067592 -0.002277224 0.16934855 0.16015694 -3.3107583e-28 7.0803475e-07
-0.0033157428 -0.01699432 -1.3459731e-06 1.7351804e-06 -1.9600136e-06 -3.6088609e-06 0.20431553 0.29338953
-0.22788471 -0.21872388 0.20507698 -0.22093587 -0.13592435 0.16514638 1.2649279e-25 -3.3720034e-06
-0.07196572 0.0861485 2.0901723e-06 2.1538615e-06 1.6429623e-06 -3.6755587e-06 0.13002437 -0.056258652

weight f4 [16]
00000000: c082 c03f 04e6 ad3f 9a56 a73f d59b c73f
00000010: ac31 aa3f 1671 ae3f b164 ab3f cd3a c43f
00000020: c0e3 a93f e9f2 b93f 1c52 a73f cbeb ae3f
00000030: fd16 c43f be59 bb3f b031 c73f 2ec6 a43f
1.5039902 1.358582 1.3073304 1.5594431 1.3296409 1.3628261 1.3390104 1.5330445
1.3272629 1.4527255 1.3071933 1.3665708 1.5319515 1.4636762 1.5562038 1.287298

bias f4 [16]
00000000: 1c2a e63d fc83 adbc 74f8 27bc 36b7 61be
00000010: b45b 883d ea28 ad3c 667b edbc 7ed5 72be
00000020: 80ad 8dba ee12 d53d 3d3f 0b3d e565 a13d
00000030: efa5 69be 9047 60be 2fb0 96be 11c0 af3d
0.112385005 -0.0211811 -0.010252107 -0.22042546 0.06658116 0.021137673 -0.028989505 -0.23714253
-0.0010809153 0.10404001 0.033995856 0.07880763 -0.22817205 -0.21902299 -0.29431292 0.08581556

running_mean f4 [16]
00000000: 5b4b 7f3d eab7 49bb b258 59bd 2dbe d13b
00000010: e6e1 143d 9b16 6a3c 793a ac3c 479c a93d
00000020: d61f 5139 5d16 663d fe7d fb3c 74bb 343d
00000030: 89af e63c d542 7d3b 5f47 563d 499e 393d
0.062327724 -0.0030779787 -0.053063102 0.0064008445 0.036348246 0.014287616 0.021023976 0.08281761
0.00019943653 0.05617367 0.030699726 0.04412408 0.028159874 0.0038644571 0.05231416 0.045316968

running_var f4 [16]
00000000: ae98 ce3e ef53 ce3e 64d9 c43e e768 cf3e
00000010: fc1a cb3e 09cf d73e e160 da3e 1597 f53e
00000020: 48ba b53e 2dc8 db3e 31ac cf3e 0355 d33e
00000030: 1673 cd3e 53da b03e 9948 cb3e ce5c bb3e
0.4035086 0.4029841 0.38447106 0.40509722 0.39669025 0.42150143 0.42652038 0.4796683
0.35493684 0.4292616 0.4056106 0.41275796 0.40126866 0.34541568 0.39703825 0.36594242

weight f4 [2, 16, 1, 132]
00000000: 0e3f 413b 9f7d b13b b12a 843b 156d 41bb
00000010: e9eb 8dbb 9a8a 92bb dde1 003b 5f4b 483a
00000020: 7a81 03bc ccb9 b7bb e0db e13a 1bf1 3ebb
00000030: d208 643a 381b c9bb e545 88bb 4812 5e3b
00000040: 3399 b63b 443b dc3b ade5 523c 772d e33b
00000050: e526 833c 1b7e 9d3c b240 5a3c 35c8 143c
00000060: 2e4a 913b 8b3a cf3a 1cd3 863b 92f1 943a
00000070: b72c 283b d36f 093a c97e 33bb 887e c33a
00000080: 3a1e 013b ed90 36ba 2b9a 9f3b 9742 b0b9
00000090: 745a ad3b c59d 93b9 bf2e 18bc 0641 6bbb
000000a0: 6059 f639 2ad1 303a b500 9cbb e6e4 5b3a
000000b0: 6e25 7439 15e8 c2ba be69 8f39 dae2 0b3b
000000c0: 5a64 0dbb 7fad 3e3b 4e94 dc3a 5d64 543b
000000d0: 2487 983a 2a2f afb8 b0f2 893b 8c53 27bb
000000e0: 0920 e9ba b02c 12bc eba2 8bbb 8106 053c
000000f0: 7747 8f3b 1335 ae3b bf6c 023c 0c24 0e3c
00000100: a9a1 873c 191e 853c 3cdd 243c faaf 533b
00000110: d0cb 033b 66f6 7f3b 7978 c83b e4ee 48b9
00000120: c9bd 003b 1363 27bb ce12 9b3a f740 3e39
00000130: 74be 0f3b 3589 2b3b c60a 113c 162b 813b
00000140: 54f7 a93b aee8 f539 ba58 9fbb be85 0fbb
00000150: 5d76 5dbb bdd7 7cbb 5668 cdbb 9e83 7437
00000160: 3311 09bb 2b2d 9d39 79a2 433b 9da2 2d3b
00000170: a9a1 daba 4205 c239 4d2e ce3b f982 d13a
00000180: b5c0 d2bb c4e3 2cbb 2dd9 85bb 498b 02bb
00000190: c9ba 8138 7a63 94b9 2e08 1aba 39fe 77b9
000001a0: b9f4 b63b e9de 363c 0ee4 4d3c 617d 363c
000001b0: eba6 583c 1fc9 8a3c c276 503c f5d9 c73b
000001c0: 8f8a 683b ae38 e53b ec2b 883b b197 92ba
000001d0: ad3d 93bb dec6 653a ddaf c63b 0db1 ef3a
000001e0: c7b4 8c3b a3e9 783b c0e2 073b 382b 96bb
000001f0: 29df 153b 175f 0c3b b1ee 1fbc 5f3e 4d3b
00000200: f63f 1eba 0f9b b63b 6530 563b 613b 5a3b
00000210: 7961 d33a 7104 c639 0c1d 88bb 1df1 05bb
00000220: fac4 91bb d3eb bf3b 009e 883c b467 00ba
00000230: 601b 78bb 9a86 35bb 9277 023b c793 4b3c
00000240: 4e37 5c3c b87c c33b 4cd4 7abb c20c 44bb
00000250: 6230 f63a 9b2f df3b 020d f13b dbd1 8cba
00000260: df21 653b f28d 813a c7cc 91b9 e04f 083b
00000270: b2c0 beba d499 b43b ff7f 89ba 5aa3 afbb
00000280: e9e5 5bbb 7ada 26bb 6990 ecba 5848 69bb
00000290: 509c 3dbb e3d0 d83a d620 46bb 03c5 6cbb
000002a0: 27a5 2dbb b71b 22bb 8994 8cbb a11e 403b
000002b0: 6e3b 9c3b 5400 273b 646b 50ba 72d3 6b3b
000002c0: 2b28 3ab9 9921 10bb 40b9 f4bb aff2 14bc
000002d0: 016d 163b 80c8 e43b 25e4 513c 7f3a b1b9
000002e0: dcca f3bb 58c0 69bb a2c1 1a3b 03c3 e83b
000002f0: c423 363c d360 493c bfb1 293b 5c58 eeba
00000300: 0a9d b23b 06f6 aa3b f453 4839 1e19 5a3b
00000310: 747b 0b3c 9574 7e3b fe3d 56bb 04e9 c2bb
00000320: b9fc b4bb 013d ce39 980c c53a c781 3aba
00000330: 84b1 863b ef6f 4f3b 90a3 9fba a2c9 353a
00000340: a73b af3a 403a 6b3b 1f63 d4ba fbd0 dbba
00000350: d638 5fba 005e 09bc 3d39 c9ba 892e 8d3a
00000360: ac0e a33a 649a 483a f8a0 373b f238 0939
00000370: 18ff 11bb 3095 d43a 0eb7 d73a 63c9 e3ba
00000380: af51 d83b 62bf 483b c90b 263c 63b6 e7b9
00000390: 2093 02bc 33d8 68bb 3689 9e3b 4daa 053c
000003a0: dc8d 103c cff0 e83b a7e9 74bb 5d83 a5b9
000003b0: 6da2 d23a 6bf4 0e3c b2b8 963b a4b9 053b
000003c0: 322d 523b 444b 873b f916 8c3a aadc 56ba
000003d0: 788c 3b39 98b2 ab3a 06d3 973b 7c2a 15bc
000003e0: 1693 dab9 88b7 4c3b 3a69 abbb 1435 39bb
000003f0: fe22 61ba 5bae 9b39 fa72 acbb 1e58 4ebc
0.0029487046 0.0054165865 0.0040334095 -0.002951448 -0.004331101 -0.004472089 0.0019665875 0.00076406257
-0.008026475 -0.0056068655 0.0017231666 -0.002913541 0.0008698824 -0.006137278 -0.0041587227 0.0033885408
0.005572462 0.006720932 0.012872142 0.00693291 0.016009757 0.01922517 0.013321089 0.009080936
0.0044338917 0.0015810294 0.0041145217 0.0011363497 0.0025661418 0.00052427984 -0.0027388802 0.0014915029
0.0019701854 -0.00069643446 0.004870673 -0.0003361895 0.005290324 -0.00028155572 -0.009288489 -0.0035896911
0.00046987366 0.0006745035 -0.0047608265 0.00083882955 0.00023283597 -0.0014870191 0.0002735387 0.002134493
-0.0021574707 0.002909511 0.0016828866 0.0032408454 0.0011636955 -8.353435e-05 0.004209839 -0.0025531976
-0.0017786036 -0.008921787 -0.0042613647 0.008119226 0.004372533 0.0053163855 0.007960497 0.008675586
0.016556578 0.016249703 0.010062512 0.0032300935 0.0020110495 0.0039056777 0.006117877 -0.0001916248
0.001964437 -0.002554123 0.0011831166 0.00018144013 0.0021933587 0.002617431 0.008852666 0.003941904
0.0051869545 0.000469034 -0.004862872 -0.0021899785 -0.0033792474 -0.0038580738 -0.0062685413 1.4574178e-05
-0.0020914793 0.00029979026 0.002985148 0.002649463 -0.0016680259 0.0003700648 0.0062921406 0.0015984467
-0.006431664 -0.0026380876 -0.0040847273 -0.0019919446 6.185991e-05 -0.00028302876 -0.00058758527 -0.00023650461
0.0055833724 0.011161544 0.0125665795 0.011138291 0.01322339 0.016941605 0.012723627 0.0060989805
0.0035482978 0.006995282 0.0041556265 -0.0011184124 -0.0044934363 0.000876529 0.006063445 0.0018287018
0.0042940113 0.0037981055 0.0020734519 -0.004582789 0.002286861 0.0021418983 -0.009761498 0.0031317694
-0.00060367526 0.0055726836 0.0032682654 0.0033299553 0.0016127072 0.00037768812 -0.0041538533 -0.0020437904
-0.0044485303 0.00585697 0.016676903 -0.00048982655 -0.0037858114 -0.0027698637 0.0019907695 0.01242537
0.01344092 0.0059657954 -0.0038273511 -0.002991483 0.001878273 0.006811095 0.007356287 -0.0010743694
0.0034962816 0.0009884222 -0.00027809126 0.0020799562 -0.0014553277 0.005511502 -0.0010490416 -0.005360049
-0.0033553785 -0.0025459812 -0.0018048409 -0.0035596099 -0.002893228 0.0016541745 -0.0030231974 -0.003612817
-0.0026496144 -0.0024735758 -0.0042901677 0.0029315131 0.0047678268 0.0025482373 -0.0007950573 0.0035984186
-0.00017753306 -0.0021992682 -0.0074683726 -0.009091063 0.0022953155 0.0069819093 0.012810742 -0.00033803654
-0.007439954 -0.0035667624 0.002361395 0.0071033253 0.011116926 0.012291151 0.0025893298 -0.0018184292
0.0054508494 0.0052173166 0.00019104761 0.0033279131 0.00851332 0.0038826813 -0.0032690759 -0.005948188
-0.005523291 0.00039336833 0.001503366 -0.0007114675 0.004110517 0.003165241 -0.0012179483 0.00069346477
0.0013369218 0.0035892874 -0.0016203857 -0.0016770655 -0.0008515244 -0.008384228 -0.0015352141 0.0010771315
0.0012440286 0.00076524005 0.002801953 0.00013086552 -0.0022277292 0.0016218778 0.0016457753 -0.0017378744
0.0066015343 0.0030631651 0.010134646 -0.00044195642 -0.007969648 -0.0035529255 0.004838134 0.008158279
0.008822884 0.0071087847 -0.0037370713 -0.00031569126 0.0016070135 0.008725266 0.004599654 0.002040484
0.0032070396 0.0041288454 0.0010687999 -0.00081963337 0.00017886038 0.001309949 0.0046333103 -0.009104367
-0.00041689788 0.0031237323 -0.00523105 -0.0028260397 -0.0008588283 0.0002969381 -0.0052627297 -0.012594251

bias f4 [2]
00000000: cc87 fb3e 2285 fbbe
0.49127042 -0.4912501
