models/p300_reps1.pt (torch, 38921 bytes, 18 tensors)

weight f4 [8, 1, 1, 125]
000000 9f ae 5e 36 27 d9 3c b5 ad c0 74 b6 7e 5e 8e b5
       3.318222e-06 -7.0351456e-07 -3.6470985e-06 -1.0607325e-06
000010 fe 41 60 b6 66 86 4f 36 6c ff 21 b6 9a 32 8b 35
       -3.3417014e-06 3.0923634e-06 -2.4139545e-06 1.0371034e-06
000020 93 da 88 b5 6f 27 e9 b5 21 d5 1b b5 d6 5f 02 36
       -1.0196403e-06 -1.737133e-06 -5.8052143e-07 1.9427293e-06
000030 22 28 57 36 85 77 64 b6 43 b1 58 36 39 cf 74 36
       3.2060857e-06 -3.4044217e-06 3.2289688e-06 3.6479453e-06
000040 9e 93 05 35 98 6d c7 b4 7c 98 5a b5 ec 7f 8a b5
       4.976117e-07 -3.7146378e-07 -8.143322e-07 -1.0319031e-06
000050 28 f1 99 35 9a 5e 72 36 95 a9 c2 35 f9 56 c6 35
       1.1469574e-06 3.6115875e-06 1.4503481e-06 1.4777462e-06
000060 8e 75 c3 b5 be cb 64 b6 be 63 09 36 60 28 06 b6
       -1.4562845e-06 -3.409324e-06 2.0472648e-06 -1.9991057e-06
000070 51 3a 29 b6 d8 af 6e 36 08 3f 61 b6 27 0c 41 b6
       -2.5216907e-06 3.5567118e-06 -3.3564302e-06 -2.8766315e-06
000080 e4 a8 9d b4 2e 0b f2 35 a3 05 ee 35 79 ec 3f 36
       -2.9366413e-07 1.8033659e-06 1.7734022e-06 2.8598863e-06
000090 c4 20 20 35 f0 81 3b b5 b7 f5 17 36 51 9c 63 b5
       5.9652325e-07 -6.985201e-07 2.2643778e-06 -8.479156e-07
0000a0 cf 3d a4 35 83 60 38 b6 45 01 06 b5 46 e8 da b5
       1.2236941e-06 -2.7474314e-06 -4.992074e-07 -1.6309866e-06
0000b0 62 9e 75 36 35 22 15 b6 5b e2 38 b5 bd 8c 61 36
       3.6600036e-06 -2.2222641e-06 -6.887473e-07 3.3609533e-06
0000c0 4d f5 8e 35 44 a5 6d 36 fc 23 70 35 bd 30 ef b5
       1.0651216e-06 3.541195e-06 8.945933e-07 -1.7821072e-06
0000d0 7f 4e 3d b5 9f 21 f4 b5 8d 16 53 36 2a 70 20 33
       -7.0522213e-07 -1.8189202e-06 3.1454576e-06 3.7354916e-08
0000e0 85 08 6f b6 89 f5 65 36 45 5e 03 36 0b 37 f8 b4
       -3.5618734e-06 3.426658e-06 1.9575393e-06 -4.623365e-07
0000f0 69 0e 0b b6 63 b7 32 36 8e ed 27 36 88 d6 6d b6
       -2.0721002e-06 2.6630812e-06 2.5023214e-06 -3.5440626e-06
000100 48 dc 27 36 d5 83 37 b6 05 c0 f3 b5 52 23 5a 36
       2.501316e-06 -2.7345861e-06 -1.8160796e-06 3.250509e-06
000110 4d d7 16 b6 65 9b 35 36 ed c1 10 36 f0 c5 4f 36
       -2.2477063e-06 2.7061553e-06 2.1570552e-06 3.0960618e-06
000120 06 67 76 b6 4c 56 5d 36 b5 c8 75 36 c5 55 75 b6
       -3.6716824e-06 3.2981798e-06 3.6624672e-06 -3.655777e-06
000130 53 6c 09 b6 1e a0 58 b6 21 00 13 36 4c bf 25 b6
       -2.0477644e-06 -3.2279709e-06 2.1904782e-06 -2.4698265e-06
000140 2f 89 14 36 90 b2 5f 35 18 f6 b5 35 8a d9 11 b6
       2.213357e-06 8.3333816e-07 1.3557174e-06 -2.1733308e-06
000150 2e 27 11 b5 d0 0c 49 b6 85 38 29 b6 9c 00 36 b6
       -5.4073723e-07 -2.9958792e-06 -2.521586e-06 -2.7120468e-06
000160 0d 26 5e 34 8e 63 fb 35 61 e7 af 35 69 46 57 b6
       2.0689204e-07 1.8729932e-06 1.3105856e-06 -3.207848e-06
000170 16 8d 20 b4 ae 3e 11 b6 45 2a ec b4 24 ff c3 b5
       -1.4952488e-07 -2.1643168e-06 -4.398918e-07 -1.4602888e-06
000180 26 7b c4 b4 e3 85 1f b6 3a ee 32 36 d7 30 5d b6
       -3.6597447e-07 -2.3770779e-06 2.6662733e-06 -3.2959995e-06
000190 8f 6e 18 b5 db b3 26 36 fb ce 77 35 d8 84 72 36
       -5.6785296e-07 2.4840617e-06 9.2315867e-07 3.6138135e-06
0001a0 bd 53 70 b6 86 70 42 b6 b5 01 66 b6 f4 d2 19 b6
       -3.581153e-06 -2.897375e-06 -3.4273664e-06 -2.2921568e-06
0001b0 48 4d 3c 35 45 56 5b 36 88 37 c6 b4 48 ec 73 36
       7.0147917e-07 3.2683758e-06 -3.6920778e-07 3.6347355e-06
0001c0 d3 7e 06 b6 f7 37 68 b6 cb 91 5a b6 66 17 64 36
       -2.0041377e-06 -3.460327e-06 -3.2569394e-06 3.3988267e-06
0001d0 d4 34 6f 36 3b eb 67 b5 ce e3 67 36 70 10 09 b5
       3.5644525e-06 -8.639651e-07 3.4554282e-06 -5.1060397e-07
0001e0 e5 b0 1d b3 fc e3 01 36 a4 9c 90 b3 63 66 cc b5
       -3.6715296e-08 1.9355202e-06 -6.734015e-08 -1.5228983e-06
0001f0 0b cf f8 b5 2d 71 ba bd 92 fc 05 be ae d6 1c be
       -1.8537697e-06 -0.09103618 -0.13084629 -0.15316269
000200 09 68 1e be bc 6c 13 be 07 0c fc bd c9 ff b7 bd
       -0.15469374 -0.14396948 -0.123069815 -0.08984334
000210 6a cc 3e bd 77 f1 a5 3c 79 c1 e0 3d fc c0 53 3e
       -0.046581663 0.020256741 0.10974402 0.20679086
000220 dd ce 7c 3e 8b f2 81 3e d6 92 65 3e d2 a0 2b 3e
       0.24688287 0.25380358 0.22419295 0.16760567
000230 74 2c eb 3d 8c 90 9a 3d 61 34 64 3d d5 29 46 3d
       0.11483088 0.075471014 0.055714015 0.048379738
000240 0d e4 61 3d f6 e6 4e 3d e4 34 07 3d a6 de 0e 3c
       0.055149127 0.05051323 0.033009425 0.008720076
000250 54 22 a5 3b 63 f3 2a 3c 02 99 da 3c d2 7a 4c 3d
       0.0050394926 0.0104340045 0.026684288 0.049921818
000260 e0 bd 96 3d 14 11 b1 3d 86 b9 a4 3d 6f b7 63 3d
       0.073604345 0.086458355 0.08043198 0.055594858
000270 ef 3e ce 3c 34 ce 91 bc b6 25 90 bd fd 7e 03 be
       0.025176493 -0.01779852 -0.07038443 -0.12841411
000280 24 3b 44 be 0f 7f 73 be 1e 02 81 be 0c 8c 69 be
       -0.19163185 -0.23778938 -0.25196928 -0.2280733
000290 26 ea 3e be c7 84 00 be 64 b5 6b bd 92 ea db 3b
       -0.18644008 -0.1255065 -0.057546034 0.0067113126
0002a0 9b f6 41 3d ff b9 8f 3d 6d 6f 90 3d 5f 67 4e 3d
       0.047354322 0.07017898 0.07052503 0.05039155
0002b0 ff 33 05 3d 2a e0 79 3c c4 0a 54 3b 23 26 20 ba
       0.03252029 0.015251199 0.003235505 -0.00061091984
0002c0 06 2b c3 3c 8e da 52 3d 4a 03 a1 3d 04 42 ce 3d
       0.023824226 0.05147796 0.078619555 0.10071185
0002d0 f7 b6 05 3e 26 c2 14 3e 21 2e 16 3e e5 07 0e 3e
       0.13058077 0.14527187 0.14666034 0.13870199
0002e0 93 fa 0b 3e 41 bb ff 3d b6 14 c2 3d c4 e6 25 3d
       0.13669805 0.12486888 0.094766065 0.04050328
0002f0 86 17 6c bd 5f 7c 26 be a1 a0 83 be 70 93 a6 be
       -0.05763962 -0.16258381 -0.25708488 -0.3253436
000300 d3 ca bf be 6a e8 bf be c2 dd a8 be 9c a1 80 be
       -0.3745943 -0.37482005 -0.32981688 -0.25123298
000310 4e d6 2e be 01 a5 b6 bd 56 89 6f bc 4c 16 4b 3d
       -0.17073938 -0.08918191 -0.014620146 0.04958181
000320 f4 3d e9 3d e9 06 28 3e 6e f6 4a 3e 92 1e 5e 3e
       0.1138877 0.16408886 0.19820568 0.21691349
000330 26 3e 61 3e 50 9c 63 3e 01 c5 64 3e cb 9c 5c 3e
       0.21996364 0.22227597 0.22340776 0.21544187
000340 e0 dc 46 3e 3f 29 1b 3e b4 26 b6 3d 27 8b 4f 3c
       0.19420195 0.15152453 0.08894101 0.012667454
000350 49 85 94 bd 10 54 0e be 8e ed 37 be bf ef 44 be
       -0.072519846 -0.13899255 -0.17961714 -0.19232081
000360 d0 7a 2e be 1a 13 08 be 39 db bc bd 46 d5 58 bd
       -0.17039037 -0.13288537 -0.09221501 -0.05293777
000370 d6 62 96 bc 45 86 bb 3c c4 85 87 3d 9d f5 ca 3d
       -0.018357676 0.022891173 0.06617311 0.09910128
000380 59 c0 d5 3d 24 5a 95 3d 78 1f a1 3c e8 a0 03 bd
       0.10437078 0.072925836 0.019668326 -0.032135874
000390 89 7e 5b bd de 40 5c bd 73 bd 06 bd 42 5d b8 39
       -0.05358747 -0.0537728 -0.032895517 0.00035164697
0003a0 ed d6 f2 3c 3f 78 47 3d 98 65 53 3d d5 58 14 3d
       0.0296435 0.04869866 0.05161056 0.03621753
0003b0 2a 4b 98 3c 62 81 b1 bb 94 14 07 bd bc f5 74 bd
       0.018590529 -0.005417035 -0.03297861 -0.059804663
0003c0 42 8f a7 bd fa b7 ac bd e3 e3 84 bd c2 8a 00 bd
       -0.08181621 -0.08433528 -0.064887784 -0.03138233
0003d0 0a cb a1 ba d1 f2 a5 3c 9a 29 01 3d d1 8e 20 3d
       -0.0012343836 0.020257385 0.031533815 0.0391987
0003e0 5b 8a 9a 3d 78 77 02 3e 00 6c d8 be db 7d b5 be
       0.075459205 0.12740886 -0.42269897 -0.35447583
0003f0 74 2f 82 be 78 dc 38 be 48 2a ce bd f5 84 8e bc
       -0.2542683 -0.18052852 -0.10066658 -0.017397383

weight f4 [8]
000000 64 96 6f b6 21 93 5b 3e 20 7d 93 3e 6e 21 5f 36
       -3.5701314e-06 0.21442844 0.288064 3.3249048e-06
000010 46 41 9a 3e 77 90 91 3e 0d e4 92 3e ae a4 a2 3e
       0.30127925 0.2843053 0.28689614 0.31766266

bias f4 [8]
000000 00 00 00 00 9f d2 24 2b b2 40 bb 33 00 00 00 00
       0.0 5.85568e-13 8.719634e-08 0.0
000010 af 87 c9 b5 65 f0 84 33 78 59 b9 35 a0 8b c9 ab
       -1.5015156e-06 6.1904565e-08 1.3809613e-06 -1.4320663e-12

running_mean f4 [8]
000000 f1 7a b1 32 85 27 5c bc ae 93 b5 bc 76 96 d3 b1
       2.066142e-08 -0.013437157 -0.022165146 -6.1580137e-09
000010 b7 94 67 3c eb a0 2a 3a 47 62 25 3c 46 71 41 bc
       0.0141345775 0.0006508964 0.010094232 -0.011806792

running_var f4 [8]
000000 d1 84 1a 30 5b 5c 77 40 e0 19 80 40 7c 79 96 30
       5.6213617e-10 3.865012 4.0031586 1.0948464e-09
000010 22 d4 5c 41 19 7a 5c 41 2f 74 87 3f ec b5 b9 40
       13.80179 13.779809 1.0582331 5.8034573

weight f4 [16, 1, 8, 1]
000000 07 0f 72 36 18 77 58 b6 2b 7f bb b5 40 6b 50 36
       3.6069557e-06 -3.225583e-06 -1.3969596e-06 3.1056843e-06
000010 4d d7 3e 36 f1 87 19 b5 d6 85 75 36 70 8d 69 b6
       2.8437528e-06 -5.719476e-07 3.6585748e-06 -3.4802033e-06
000020 48 4e 9c 35 d2 8c df 34 0a 58 0b b6 6d 20 6a b6
       1.1645689e-06 4.1639447e-07 -2.076386e-06 -3.4887591e-06
000030 11 d9 89 b4 d7 f4 a1 b5 15 53 aa 35 38 a6 58 35
       -2.5676175e-07 -1.2066693e-06 1.2690167e-06 8.070815e-07
000040 e2 ee 1f 3e df 1f 4b 3e f2 93 66 3e eb f6 29 3e
       0.1561847 0.19836377 0.22517374 0.16598098
000050 f0 ef 17 3e 27 75 98 3d ef cd 07 bf 32 4c 64 be
       0.14837623 0.0744422 -0.53048605 -0.22294691
000060 84 bb 83 3d e9 ee f3 3c 53 35 9d 3d 60 8f ab 3c
       0.0643225 0.029777007 0.076761864 0.02094239
000070 f9 23 f5 be b2 d6 18 be fa c9 62 bd c5 0d 1f 3f
       -0.47879007 -0.1492565 -0.0553684 0.62130386
000080 66 d9 e7 3d 3f 79 d8 bc 52 60 cc bc 6b 8e cf 3c
       0.11320762 -0.026425002 -0.024948273 0.025336465
000090 05 3a e3 be 2c 48 cd be f5 34 04 3f ad 43 42 3e
       -0.44380203 -0.40094125 0.51643306 0.18971129
0000a0 8b 78 6c bc ea a5 74 3d 68 1b 90 be 0a d4 75 be
       -0.014433037 0.05972854 -0.2814591 -0.24006668
0000b0 b0 85 b6 bc 54 ff d5 bd 6a fb b8 3e cc 9e 11 3f
       -0.022280544 -0.104490906 0.36129314 0.5688293
0000c0 26 c7 38 b6 0b 53 a3 33 0c 6a 70 b6 96 8f 2f 36
       -2.7534056e-06 7.6053844e-08 -3.5824514e-06 2.616061e-06
0000d0 27 9b 34 36 40 c3 a6 33 57 18 54 b6 3e 15 28 b6
       2.69124e-06 7.765493e-08 -3.160463e-06 -2.5046315e-06
0000e0 d0 9c 31 b6 8e fc 61 b6 27 dc 74 36 f8 43 d9 b4
       -2.6466332e-06 -3.3674619e-06 3.6486979e-06 -4.0468854e-07
0000f0 65 13 0b b6 4f 4a 57 b6 99 32 63 b6 56 12 e9 35
       -2.0723903e-06 -3.208075e-06 -3.3855088e-06 1.7365189e-06
000100 e1 a5 de be 85 4b 29 bd b5 d5 97 3e df c7 25 be
       -0.4348593 -0.041331787 0.29655233 -0.16189526
000110 9a c6 4f be ce 4f 8c 3d 97 99 25 be fa 1d 7e 3e
       -0.20290604 0.06851159 -0.16171871 0.24816123
000120 5e 27 d3 bd cd a8 21 be 7c 85 05 3e e5 5d bc 3d
       -0.10310243 -0.15787049 0.13039201 0.091975965
000130 b4 e0 65 3c ce ba 18 bf ce 48 1c be ac 9e 65 3d
       0.014030624 -0.5966004 -0.15262148 0.056059524
000140 78 b9 12 be 64 f8 8e 3b b7 7b c6 3e 09 d1 b9 3e
       -0.14328563 0.0043631066 0.38766262 0.36292294
000150 f1 2b d2 3d e0 76 a5 be e8 1f 20 bd 9e b6 6b bc
       0.102622874 -0.32317257 -0.03909293 -0.014386801
000160 80 ab 0b 3d 31 50 1a bd b6 d0 33 bd 0d 0b d1 bd
       0.034099102 -0.037674133 -0.043900214 -0.10207186
000170 14 21 e0 3e ea c1 92 3e 0f 48 2d 3e 3d 81 16 3b
       0.43775237 0.2866357 0.1692202 0.0022965216
000180 a4 c2 2a 3d 7d 2c e2 bd a3 39 de 3e 3f 57 b6 3e
       0.04168953 -0.11043642 0.43403348 0.35613438
000190 bf 5e 98 be 29 9a 6c be d3 a9 f2 be 62 aa f3 bd
       -0.29759786 -0.23105682 -0.4739519 -0.11897732
0001a0 aa 66 ad bc 5c a7 0f 3e 6b b0 01 bf 84 ec 99 be
       -0.021167118 0.14028686 -0.5065982 -0.3006326
0001b0 22 d2 b3 3e 79 5c a2 3e 9f ff e9 3e d9 cc 74 3d
       0.35121256 0.31711176 0.45702836 0.05976567
0001c0 12 c0 05 3c 90 34 02 3e e7 29 93 be 65 01 36 3d
       0.008163469 0.12715364 -0.28742906 0.044434924
0001d0 6a 90 a9 3d 4f 2e f5 be a6 3e ff bd ad 6b 47 3e
       0.08279498 -0.47886893 -0.12463121 0.19474669
0001e0 0c 4d 82 bd 81 8f 0e 3a 1f 2b 69 3e 7b 32 f3 bb
       -0.06362352 0.0005438254 0.22770356 -0.007421789
0001f0 8b c4 09 3d 39 f0 08 3f 4d 7d eb be 4a c8 d9 be
       0.033634704 0.5349155 -0.45994034 -0.4253562

weight f4 [16]
000000 f6 74 36 36 d0 ef 75 36 26 f2 12 3f cb ae 23 3f
       2.7188194e-06 3.6647434e-06 0.5740074 0.6393859
000010 94 6f 49 3f f7 83 5e 3f bf ad 62 36 db c9 60 36
       0.7868588 0.8692011 3.3777758e-06 3.3496096e-06
000020 24 2a 3d 3f 6a c2 69 3f 41 c0 91 3f e5 39 4e 3f
       0.73892426 0.9131228 1.1386796 0.8055709
000030 a6 ba c7 3f a0 32 cd 3f 2f 41 92 3f 73 3d 4b 3f
       1.5603836 1.6031075 1.1426142 0.7939064

bias f4 [16]
000000 4b de d5 35 cc 80 ea 35 3e 9d 2c bd 71 59 b1 3b
       1.5934432e-06 1.7471843e-06 -0.042142145 0.0054122736
000010 d8 37 16 be 6f cb 20 be ab 89 4b b6 1c 41 18 36
       -0.1466974 -0.15702604 -3.032949e-06 2.2687664e-06
000020 70 23 ae be dd 8a f6 be 41 08 f8 be e0 48 84 be
       -0.34011412 -0.4815282 -0.48443797 -0.2583685
000030 48 38 14 bf 09 65 14 bf a3 4b a7 be c1 ec 2f be
       -0.5789838 -0.5796667 -0.32674894 -0.17180158

running_mean f4 [16]
000000 26 d9 3d 23 48 b5 cb 23 a0 bb 68 b9 56 5f 4b 39
       1.02916935e-17 2.208608e-17 -0.0002219514 0.00019395104
000010 dc 16 8a 3a 1b c6 1c 3a 67 17 b6 24 b1 17 85 24
       0.0010535377 0.0005980448 7.896956e-17 5.771969e-17
000020 13 9e cd b9 db 6e 46 39 93 27 af 39 07 01 f1 b9
       -0.0003921842 0.00018924048 0.00033408086 -0.00045967867
000030 c9 13 80 b8 3e 45 93 38 fc e4 67 3a 8a 66 95 ba
       -6.107201e-05 7.0224036e-05 0.0008846072 -0.0011398357

running_var f4 [16]
000000 ab 9c d4 10 5e c4 b7 10 4b 9b e0 3c 9c 1e 49 3c
       8.386064e-29 7.2483324e-29 0.0274178 0.012275364
000010 39 72 93 3c 2c 16 10 3d dd 0d 50 12 c4 af 13 12
       0.017998802 0.035177395 6.5650315e-28 4.660167e-28
000020 76 d0 9c 3c 0f 11 1a 3d c4 38 83 3c d0 6c 22 3d
       0.01914237 0.037613925 0.016018279 0.039654553
000030 af 2a 69 3d e8 58 5f 3d 20 c4 d4 3c a8 42 ff 3c
       0.056925472 0.054528147 0.025972426 0.031159714

weight f4 [16, 1, 1, 31]
000000 33 bf 3d 36 4e df d8 b5 af 55 6b 36 5f 98 64 36
       2.8274487e-06 -1.6158244e-06 3.5067603e-06 3.406334e-06
000010 2d be 64 36 eb 52 8b 32 f8 88 66 b6 2b 92 19 b6
       3.4085344e-06 1.6219436e-08 -3.4352397e-06 -2.2883858e-06
000020 ed 7e 68 b6 bd 4e 79 b6 8d d1 68 b6 06 9e 48 35
       -3.4644574e-06 -3.7149723e-06 -3.4692669e-06 7.473576e-07
000030 09 00 34 b6 af 22 73 b6 b5 d7 ca b5 ac 59 23 36
       -2.682211e-06 -3.623001e-06 -1.5112952e-06 2.4341089e-06
000040 3f a8 70 b6 f5 48 24 b6 6a 34 f2 35 68 f4 5e 36
       -3.586072e-06 -2.448037e-06 1.804566e-06 3.322284e-06
000050 e6 06 72 35 2b f4 f2 33 13 a8 90 b4 30 1c 29 35
       9.0162064e-07 1.1313417e-07 -2.694438e-07 6.2998424e-07
000060 62 74 ae 35 da 23 32 36 86 49 41 36 f2 d9 aa 35
       1.2997882e-06 2.6544935e-06 2.8802037e-06 1.2729417e-06
000070 7f 0e f8 35 3d da e5 b4 96 b5 8b b5 06 31 2f 36
       1.8481659e-06 -4.2813363e-07 -1.0409155e-06 2.6105567e-06
000080 86 28 50 35 dd 61 1e b6 5b c2 55 b6 9b cd 3b b6
       7.754501e-07 -2.3600799e-06 -3.1852603e-06 -2.798485e-06
000090 a9 6f 8c 35 b5 e7 4e b6 a3 4e 6e b6 ee 24 2d b6
       1.046331e-06 -3.0831263e-06 -3.5510536e-06 -2.5800505e-06
0000a0 6d 46 6e 36 25 f3 04 b6 d9 c4 77 b6 96 9d 51 36
       3.5505757e-06 -1.9811062e-06 -3.6920449e-06 3.1235154e-06
0000b0 37 ab 32 36 37 bb dd 35 74 44 1e b5 9d 72 48 36
       2.6623727e-06 1.652027e-06 -5.89592e-07 2.9869036e-06
0000c0 e5 8a 39 36 33 65 00 b6 8c 5e 70 b6 f2 3d 6b b6
       2.7647995e-06 -1.9132392e-06 -3.581782e-06 -3.5053786e-06
0000d0 51 ec 33 36 dd ef de 34 b0 d9 6f 36 c5 99 68 36
       2.6810633e-06 4.1525246e-07 3.5740486e-06 3.46602e-06
0000e0 af dc 3a b6 c3 4f 74 b6 e4 d5 13 36 f3 dd 45 36
       -2.7844615e-06 -3.640526e-06 2.2029208e-06 2.948448e-06
0000f0 ba 40 73 36 ae 08 1e b6 57 c0 35 3e 72 96 38 3e
       3.6247498e-06 -2.3548887e-06 0.17749153 0.1802614
000100 50 61 c3 bc 30 e9 8a be 79 86 7c be a5 20 49 bd
       -0.023850113 -0.27131033 -0.24660672 -0.049103398
000110 6a e1 22 3e 85 f1 6a 3e 31 6d c3 3d 32 6e 29 be
       0.15906301 0.22943695 0.09542311 -0.16545942
000120 7e 6f 9a be da ce 19 be df 8b 9a 3d 5f 0d ce 3d
       -0.30163187 -0.15020314 0.075462095 0.10061144
000130 b1 25 b9 3d 37 63 20 3d 0c 18 4a be 87 c1 6d be
       0.09040392 0.03915712 -0.19735736 -0.23218356
000140 97 f6 ee bc 9c 7f e0 3d 53 a9 0d 3e c1 c3 71 3d
       -0.029170318 0.109618396 0.13834123 0.059024576
000150 c5 4f a9 3b fc be 22 3e 06 77 91 bd c6 d6 98 be
       0.00516698 0.15893167 -0.0710278 -0.2985136
000160 85 6a 9d be d6 95 a5 bd 2e 7f 6b 3e 86 ee 37 3e
       -0.3074533 -0.080852196 0.22997734 0.17962083
000170 51 06 b4 3d fa 3b b0 3e 61 97 57 3e 41 ee 0c be
       0.08790267 0.34420758 0.2105384 -0.13762762
000180 63 12 81 be 11 22 b4 bd bf 8b 2c 3e 2f 15 75 3d
       -0.2520934 -0.0879556 0.16850184 0.059834655
000190 f3 76 d1 bd e7 ec da bd 15 23 2c bd 56 72 69 3c
       -0.10227766 -0.10689717 -0.042025644 0.014248451
0001a0 2a d0 29 3e 84 5c 97 3e 0d c0 cc 3e 8c fb d8 3c
       0.16583315 0.2956277 0.39990273 0.026487134
0001b0 ff 04 89 be ad 19 71 be bb 30 8a bd 31 ba e4 3c
       -0.26761624 -0.23544951 -0.06747576 0.027920814
0001c0 1a a4 06 3e ff 4a 5b 3e c2 3d 45 3e 8a 25 11 3e
       0.13148537 0.21415327 0.1926184 0.14174476
0001d0 f4 d1 4f bd 90 c2 ff bd 56 3c 87 3c f3 8f 76 3e
       -0.050737336 -0.12488282 0.016508263 0.2407835
0001e0 f5 8e 51 3e fe e0 40 3e 32 9f 97 3e 2c ef 18 3e
       0.2046469 0.18835828 0.29613644 0.14934987
0001f0 db 71 d0 3e 8e 08 17 3e 49 69 5a bd 88 4a 3d bd
       0.40711865 0.14749357 -0.053323064 -0.046213657
000200 5c 29 01 3e 10 f8 27 3e a3 6d bf bd 46 49 6c be
       0.12613434 0.16403222 -0.093470834 -0.23074827
000210 ec 63 ce 3d 96 ff 36 3e fe 78 64 bd 0d 28 75 be
       0.10077652 0.17870936 -0.05577945 -0.2394106
000220 39 4f 6a be d4 e7 78 3d 08 7e 8c 3e 66 61 19 3e
       -0.22881784 0.060767964 0.27439904 0.14978561
000230 45 c1 36 be f0 83 0f be 5f ce d4 3d d5 fc b3 bd
       -0.17847164 -0.14015174 0.10390925 -0.08788458
000240 fd d1 82 be d3 33 e5 bd 8a c2 fc bd ab 8c bf bd
       -0.25550833 -0.11191525 -0.12341793 -0.09353002
000250 37 fd bc 3c e0 b1 f2 3e de 33 ca 3e 82 2c bd 3d
       0.023069961 0.47401333 0.39492697 0.09237005
000260 56 a5 30 be 82 f6 4f be 50 ed 8a bd 2d 8a 82 3e
       -0.1725057 -0.20308879 -0.06783545 0.25496045
000270 03 4a 33 3e 53 52 0f bd 84 dc 6e be 86 a9 71 be
       0.17508702 -0.03499062 -0.23326308 -0.23599824
000280 58 dc 27 bd da cf 4d 3d 4c d4 db 3c 90 af 94 3d
       -0.04098162 0.05024705 0.02683463 0.072600484
000290 52 12 76 3e b1 28 03 3e 1a 32 42 bd dc e7 52 be
       0.24030426 0.12808491 -0.04741106 -0.2059626
0002a0 6d a2 79 be f2 07 a5 bd 01 49 a7 3d 9a 82 8a 3c
       -0.24378367 -0.08058156 0.08168221 0.016907979
0002b0 d0 c2 f7 bd 54 a5 13 be d9 64 1b bd 5e 1a d0 ba
       -0.120977044 -0.14418536 -0.037937973 -0.0015876999
0002c0 5b 3c 91 bc 24 3e 2b be b9 49 80 be b9 57 71 be
       -0.017728975 -0.16722924 -0.25056246 -0.2356862
0002d0 2c 7c 9a bc 54 3e 50 3e ba bf 9d 3e b4 9a 53 3e
       -0.018858038 0.20336276 0.30810338 0.20664483
0002e0 9d c4 62 bd 15 3d 93 be 84 e5 69 b6 8a 8b 1a 35
       -0.055363286 -0.2875754 -3.4853301e-06 5.7572527e-07
0002f0 57 2e a8 b5 35 c7 e4 b5 4b 6e 30 b6 5f eb 0c b6
       -1.2530462e-06 -1.7045301e-06 -2.6290243e-06 -2.099863e-06
000300 79 a1 b8 b5 88 ac 70 b6 91 e5 6e b6 bf a2 5e b6
       -1.3756063e-06 -3.5863213e-06 -3.559839e-06 -3.3175309e-06
000310 75 a9 61 36 af 74 92 34 b8 18 6f b6 d7 c9 72 36
       3.362625e-06 2.7279518e-07 -3.5628163e-06 3.6178296e-06
000320 db 2a 47 36 4e be c1 b5 25 57 45 35 dc ef 50 36
       2.9678256e-06 -1.4435007e-06 7.351503e-07 3.1134032e-06
000330 be 49 3b 36 fc 49 76 36 28 0b 46 36 85 94 13 36
       2.7908095e-06 3.669992e-06 2.9510793e-06 2.1991157e-06
000340 75 71 63 b6 93 e3 56 b6 bb 6e 5b b6 6b e9 60 36
       -3.3891677e-06 -3.202095e-06 -3.2697997e-06 3.3514468e-06
000350 5f 81 77 36 22 90 61 36 df 4d e3 35 45 e1 71 35
       3.6881172e-06 3.361151e-06 1.6935481e-06 9.0107307e-07
000360 d8 85 5a b6 c2 68 bd 35 4b fe 63 b6 58 ac 61 35
       -3.2562439e-06 1.4112086e-06 -3.3973654e-06 8.4069825e-07
000370 f9 79 19 b4 2e 03 39 36 18 f3 3f 36 ad cc 5c b6
       -1.4293609e-07 2.7569e-06 2.8602717e-06 -3.2901692e-06
000380 31 dd 72 35 97 b5 0b 35 5a d6 9d b5 06 8c 3c b6
       9.04739e-07 5.2045783e-07 -1.1759796e-06 -2.8095687e-06
000390 9c d1 05 36 56 e6 d3 b4 53 28 9c b5 34 54 75 36
       1.9940553e-06 -3.9469404e-07 -1.1634642e-06 3.6556858e-06
0003a0 63 4b 54 b6 cf 2b 70 36 62 b3 74 b6 e5 ab 3f 36
       -3.1634343e-06 3.5788287e-06 -3.6463248e-06 2.8561274e-06
0003b0 ad fc dd 34 83 51 91 35 d6 67 2e 36 3e d5 65 36
       4.1348304e-07 1.0827065e-06 2.598846e-06 3.4247782e-06
0003c0 1c f8 23 36 ae d4 1b b6 7c c3 ca 33 27 2d 25 b6
       2.4433311e-06 -2.3220596e-06 9.4419164e-08 -2.4613198e-06
0003d0 f6 73 c5 35 bd c5 a3 35 6c 2a 70 b6 da be 78 36
       1.4711393e-06 1.2201996e-06 -3.578748e-06 3.706597e-06
0003e0 29 bf 44 3e 3a d1 f5 3d 4d 4d 92 3d d1 b3 8f 3d
       0.19213547 0.120027974 0.0714365 0.07016719
0003f0 df cc 9d 3d 39 7c 68 3d 8b 0e 3d 3d ac 0a 6f bd
       0.07705092 0.056759093 0.046156447 -0.058359787

weight f4 [16, 16, 1, 1]
000000 d4 67 08 36 78 e0 20 b6 94 cf d3 3d d4 c0 ee bd
       2.0326015e-06 -2.3972516e-06 0.10342327 -0.11657873
000010 a5 85 c4 bd 7a 5c de 3c ff 15 79 b6 ed ee 72 36
       -0.09595803 0.027143706 -3.7116695e-06 3.6199883e-06
000020 60 e5 31 be 2a 90 3a bc fc d6 67 be 8c b7 51 3e
       -0.17372656 -0.01138691 -0.22640604 0.20480174
000030 64 0d 64 bc 42 0c c2 3d eb 57 2b bc 2c e7 ba be
       -0.013919208 0.09474994 -0.010457973 -0.36504495
000040 ff 43 05 36 b4 5c 1e 36 c3 83 aa 3d 9a 21 c3 bd
       1.9858123e-06 2.3597795e-06 0.08325913 -0.09527893
000050 56 3a a5 3e 4e 9c 43 3e f3 42 72 b6 b3 aa 5f 36
       0.3227107 0.19102594 -3.609978e-06 3.332895e-06
000060 d0 c5 87 bd b2 b6 9c 3d 8c dc 62 bd 88 2c c4 bd
       -0.066295266 0.07652034 -0.05538611 -0.09578806
000070 75 5d 94 bd 8a 61 06 3e f0 b6 1e 3e 99 77 43 3e
       -0.07244388 0.13123146 0.15499473 0.19088592
000080 4f d3 6b b6 87 9e 57 36 d6 7f 57 3e 38 33 74 bd
       -3.5140727e-06 3.2129772e-06 0.2104486 -0.05961916
000090 98 f2 94 3e eb ad 88 3e 62 b4 3d b4 4d f0 c1 b5
       0.29091334 0.2669519 -1.766762e-07 -1.4449557e-06
0000a0 5a 33 5f 3d f2 49 8a 3c ce 25 69 bd a5 3f d9 3d
       0.054492332 0.016880963 -0.05692082 0.10607842
0000b0 41 17 a6 bd 5b 54 3b 3e d5 74 21 3e 2f da 80 3d
       -0.08109904 0.18293898 0.15767224 0.06291615
0000c0 5d 5b fe 35 13 68 43 36 24 79 53 bd 0d fc 8f 3e
       1.8951065e-06 2.9117843e-06 -0.0516292 0.28121987
0000d0 8f ea 30 bd 12 85 77 bc 1a 76 79 b5 77 46 38 36
       -0.043192443 -0.01510741 -9.293159e-07 2.7459153e-06
0000e0 12 97 c9 3d 05 ec 27 3e 49 33 fa bd 5e 66 34 be
       0.098432675 0.16398628 -0.12216813 -0.17617175
0000f0 0b a4 60 3e 2e 83 2f be 7c 6d 6e 3e d6 ae 46 3c
       0.21937577 -0.17139885 0.23283952 0.012126645
000100 90 79 51 36 5c c6 e1 b5 c7 3f 01 bd 0d 02 59 3e
       3.1214186e-06 -1.6821537e-06 -0.031554963 0.21192189
000110 be 91 10 bd 9f ca 84 bd 94 62 40 b6 d8 0a 3f 35
       -0.03529524 -0.064839594 -2.866761e-06 7.1168824e-07
000120 8f 6c c9 3d d7 a7 81 3e cf 88 0d be 0b e5 4a be
       0.09835159 0.25323364 -0.1382172 -0.19813935
000130 ab f0 39 3e 9c 94 44 be b2 47 26 3e 82 90 71 bd
       0.18158214 -0.19197315 0.16238287 -0.058975704
000140 62 3e 35 36 59 d6 e4 35 da 39 8a 3e 92 fc 05 be
       2.7007413e-06 1.7049707e-06 0.26997262 -0.13084629
000150 9f 8b a3 3d e6 c6 1f 3e 72 1e 03 b6 6d 45 6e 36
       0.07985615 0.15603217 -1.9538243e-06 3.5505175e-06
000160 2d 79 3b bd 11 c8 ea 3c 00 db 4d be c3 55 02 3e
       -0.04576986 0.028659852 -0.20103073 0.12728028
000170 5c a5 81 bd e9 61 46 3c 4a be 22 3e 18 ec 8a be
       -0.06330368 0.012108305 0.15892902 -0.2713325
000180 42 74 c0 35 98 7a 9f 34 71 44 bc 3c 03 32 38 3e
       1.433895e-06 2.9705257e-07 0.022981854 0.17987828
000190 af ef 7c bd 5b fb 55 bd 6a 2f 79 36 bd bd a3 b0
       -0.061752018 -0.052241664 3.713149e-06 -1.1913738e-09
0001a0 83 c4 18 3e 11 f6 80 3e 51 fd 03 be c6 9e 92 be
       0.14918713 0.25187734 -0.12889601 -0.2863676
0001b0 83 26 0c 3e 8c 39 6e be dc dd 0d 3e 5f 6e 5e bd
       0.13686566 -0.2326414 0.13854164 -0.054304477
0001c0 57 ee 61 36 ee 75 19 b6 c7 58 fc 3d 32 12 e1 bd
       3.3666345e-06 -2.286742e-06 0.123216204 -0.109897986
0001d0 31 4b 86 3e 28 4f 83 3e 27 b2 cf 35 8b 57 4b b6
       0.26229241 0.2564633 1.5474551e-06 -3.0300314e-06
0001e0 18 9a 0a be 45 ad 00 3e 63 95 dd bd 66 ca cf bd
       -0.13535345 0.12566097 -0.10819509 -0.10146026
0001f0 3e 5c a2 bd f5 21 2b 3d d0 d7 de 3d c5 d7 40 3e
       -0.0792775 0.04178043 0.10881007 0.1883231
000200 a1 f5 0f b6 d9 cf 7a 36 3f 48 12 3e 48 1a da bd
       -2.1451635e-06 3.7373886e-06 0.14285372 -0.10649544
000210 f3 46 ad 3e 88 05 4f 3e ef 41 18 36 b9 90 ee b5
       0.33843192 0.20216954 2.2688143e-06 -1.7774502e-06
000220 1e a5 95 bc 5b 80 5c 3d 56 f9 0a bd c3 62 a3 3d
       -0.01826721 0.053833347 -0.03392919 0.07977822
000230 0b ae b1 bc 46 26 22 3e b8 97 19 3e b0 09 c7 3d
       -0.021689435 0.15834913 0.14999282 0.097186446
000240 13 74 03 36 b1 be 08 35 57 ab 1b bd 56 cb b0 3e
       1.9588085e-06 5.094144e-07 -0.0380052 0.34530133
000250 ac 8b c3 bb 62 b9 5c bd 30 75 49 36 85 3f 77 b6
       -0.005967578 -0.053887732 3.0019546e-06 -3.6842841e-06
000260 bc 71 94 3d c0 6d 55 3e c2 af ae bd ee 2a 2b be
       0.072482556 0.20842648 -0.08529617 -0.16715595
000270 70 3d 35 3e c6 70 4a be 52 48 11 3e 32 0e b5 bc
       0.17699218 -0.19769582 0.14187744 -0.022101495
000280 b0 10 8b 34 c8 27 88 b5 64 ca 25 3d c2 ed 6d 3e
       2.590291e-07 -1.0144367e-06 0.040476218 0.23235229
000290 5a 29 f1 bc 95 f9 5f bd 65 e7 6e b6 47 c4 72 b6
       -0.029438663 -0.05468138 -3.5599453e-06 -3.6175059e-06
0002a0 a6 5a 03 3e e4 f5 6a 3e 10 8b e5 bd 58 5d 4b be
       0.12827548 0.22945362 -0.11208165 -0.19859827
0002b0 5d be 45 3e 6f 8e 63 be ce 98 33 3e dc 03 48 bc
       0.19310899 -0.22222303 0.17538759 -0.012207951
0002c0 4a ae 4c 36 77 91 78 36 c1 f8 e3 3d 01 17 a3 bd
       3.0499818e-06 3.7039551e-06 0.111314304 -0.07963372
0002d0 81 c0 79 3e 0e 07 47 3e 23 ff 56 b6 b7 7f 18 b6
       0.2438984 0.19436285 -3.2036994e-06 -2.2724105e-06
0002e0 bd 72 da bd 42 9e ea 3d 4a df 62 bd 3c 2e c7 bd
       -0.10666416 0.114559665 -0.055388726 -0.097256154
0002f0 47 39 4c bd fd c7 03 3d f0 b3 53 3e 9e 6d 88 3e
       -0.04985931 0.032173146 0.2067411 0.2664613
000300 ac 72 67 36 aa b5 0b b6 06 ee 59 3e db cc ed bd
       3.448843e-06 -2.0818356e-06 0.21282205 -0.11611339
000310 1a 87 f2 bd eb e6 87 3c f9 ba 5f 36 f9 7f 25 36
       -0.11842175 0.016589602 3.3338422e-06 2.4661406e-06
000320 c9 fc 04 be d3 73 cf bc d1 11 81 be 6d 36 18 3e
       -0.12987055 -0.025323784 -0.25208905 0.14864512
000330 ea ea 5b bd 78 c8 fd 3d aa 46 bd bc b8 43 c0 be
       -0.05369083 0.12391752 -0.023104984 -0.37551665
000340 0d 99 00 36 04 2f 52 36 aa 5a 5d 3e 21 18 1d be
       1.9162574e-06 3.1319805e-06 0.21616617 -0.15341236
000350 24 a4 97 3e 13 64 89 3e 8b 56 05 b6 df 20 ef 35
       0.29617417 0.26834163 -1.986892e-06 1.7816454e-06
000360 37 dc 06 bb d8 6f 24 bc b6 45 36 bd ea a3 dd 3c
       -0.0020578036 -0.010036431 -0.044500075 0.0270557
000370 b0 8f b0 bd 9c ec 02 3e f3 75 4d 3e 32 84 20 bc
       -0.08621156 0.12785572 0.20064525 -0.009797143
000380 9c fc bb 33 54 99 d3 b5 f4 e8 82 3e a9 96 43 be
       8.7538155e-08 -1.5765349e-06 0.25568354 -0.19100441
000390 79 07 98 3e 78 3e 7c 3e 26 5e 45 35 27 b3 4a 36
       0.296932 0.24633205 7.3525223e-07 3.0204626e-06
0003a0 2b 5a 5a bb 02 04 4b 3c ba bd 05 be 2f 7c 7e 3d
       -0.0033317904 0.012391092 -0.13060656 0.06213015
0003b0 dc 85 5b bd ac b2 9a 3d 5c 0e 21 3e ee b5 8e bd
       -0.053594455 0.0755361 0.15728134 -0.06968294
0003c0 f2 e5 8d 35 7d ac 6d b6 06 c0 c4 be 5c 19 b3 3d
       1.0572242e-06 -3.5416153e-06 -0.38427752 0.08745071
0003d0 6d 2b 85 be 98 23 18 be 8a 75 25 36 91 58 21 35
       -0.26009694 -0.14857328 2.4655333e-06 6.0106055e-07
0003e0 62 b7 9a bd ee 4e 8b bd 74 69 7d bd 41 df db bc
       -0.07554509 -0.06802164 -0.061868146 -0.026839854
0003f0 ef 67 2a be db ec 5d 3d 69 b2 6f 3d 85 a6 55 3e
       -0.1664121 0.05418096 0.058519755 0.20864303

weight f4 [16]
000000 fb 15 bf 3f f3 65 a5 3f 03 e5 b6 3f 58 9d 92 3f
       1.4928583 1.2921737 1.4288639 1.1454268
000010 5f 2e 80 3f 09 ea ab 3f 45 97 80 3f 32 6b a9 3f
       1.0014151 1.3430797 1.0046164 1.3235838
000020 4b 9f 9c 3f 1a 0a 87 3f a7 97 8a 3f cb 7a a1 3f
       1.2236112 1.0549958 1.0827531 1.2615598
000030 09 98 b8 3f e4 31 c1 3f fb 2b b8 3f d2 f7 b9 3f
       1.4421397 1.509335 1.4388422 1.4528754

bias f4 [16]
000000 ff 29 bd be 22 7d 00 bf 0c 2c f6 be 82 21 10 bd
       -0.36946103 -0.5019094 -0.4808048 -0.035188206
000010 44 98 46 3b 57 be a5 be 46 05 aa 3b 0c 72 cf be
       0.003030316 -0.3237178 0.005188617 -0.40516698
000020 aa 74 c5 be 21 25 8b bd a8 cc 9e 3c 30 fc c3 be
       -0.3856557 -0.06794191 0.019384697 -0.3827834
000030 8a 65 be be 5b 9e e1 be 6f d7 dc be 6c 54 f2 be
       -0.37186843 -0.44066128 -0.43133113 -0.47330034

running_mean f4 [16]
000000 3d 4a 8c 3d 3d 4e b7 3d 52 de 3a 3d 9e 87 23 3d
       0.06850097 0.0895047 0.045622177 0.039924257
000010 e1 9d 81 3d 43 4e 8a 3d f2 6b 89 3d 8a ed e8 3d
       0.06328941 0.067532085 0.06710042 0.11373432
000020 61 8b 33 3d fc 5d 42 3d 23 e4 48 3d 73 12 ca 3d
       0.043834094 0.04745291 0.049045693 0.098668
000030 2c c0 8e 3d 52 8d 46 3d 39 dd 3c 3d 15 0a 87 3d
       0.069702476 0.048474617 0.046109412 0.0659372

running_var f4 [16]
000000 9c 78 67 3e 75 77 6f 3e 20 99 97 3e 48 36 40 3e
       0.22604603 0.23385413 0.29609013 0.18770707
000010 ba c7 33 3e 79 2c 91 3e d3 e9 2f 3e 92 ed 76 3e
       0.17556658 0.28354242 0.1717904 0.24114063
000020 e1 bc 80 3e e7 5f 41 3e 5c 32 32 3e 89 95 67 3e
       0.25144103 0.1888424 0.17402023 0.22615637
000030 ad df 8a 3e c7 d1 9d 3e af 37 b0 3e fc a6 aa 3e
       0.27123776 0.3082411 0.34417483 0.33330524

weight f4 [2, 16, 1, 44]
000000 d6 72 16 ba 9a 4b 9a bb bd bc b9 3b 99 ea e4 3b
       -0.0005739158 -0.0047087194 0.0056682513 0.006985974
000010 1d 31 ca 3a d0 02 26 bc 7d 62 b0 b9 73 f8 70 3c
       0.0015426014 -0.0101325065 -0.00033642715 0.014707672
000020 c7 29 73 3c 69 32 db bb ed f6 84 bc b9 3e 5e bc
       0.014841503 -0.006689359 -0.016231025 -0.013564759
000030 be 26 7d bc f1 0e 7c bc 7f 18 68 bc 89 a7 a0 ba
       -0.015451131 -0.015384422 -0.014165997 -0.0012256961
000040 1a 57 1b ba b1 64 db bb 86 bc ef bb cf 42 ae bc
       -0.000592576 -0.006695353 -0.007316175 -0.021272091
000050 00 d6 d5 bc 82 12 79 bc 4b 56 65 bc ed f0 c6 bb
       -0.02610302 -0.0152021665 -0.013997625 -0.006071201
000060 c8 b0 c5 3b ca e0 3b 3b 0f 1b 24 3c 32 81 8b 3b
       0.006033037 0.002866792 0.010016217 0.0042573446
000070 6c 40 96 3b 07 cc 36 ba 7f 70 55 b9 98 5d c3 3a
       0.0045853164 -0.00069731515 -0.00020355171 0.0014905212
000080 f0 5a 9f bb d7 f3 e0 bb c4 3a 80 bc 03 33 32 bb
       -0.0048631355 -0.0068650055 -0.015653022 -0.002719105
000090 dc e5 8a bb 10 40 f2 ba fd 32 ed 3b 22 fe 4c bb
       -0.004238827 -0.0018482227 0.0072387443 -0.0031279405
0000a0 0d 58 6b ba 24 6e 15 3c 81 a5 3a bb 82 8f 55 3a
       -0.0008977659 0.009120498 -0.0028479996 0.00081466895
0000b0 a7 8a 40 bc 59 1a 53 bc e3 f6 a7 bb 10 08 ab 3b
       -0.011751807 -0.0128847 -0.0051258667 0.005219467
0000c0 d8 e7 ac ba 66 40 82 3c 06 98 ee 3b 0a c9 3e 3b
       -0.0013191653 0.015899848 0.007281306 0.0029111528
0000d0 ce ac 70 3b 75 d8 32 bb b1 99 1e 3c 13 39 02 3c
       0.0036724093 -0.0027289663 0.009680198 0.007948178
0000e0 79 f6 8d 3b 1d 9a a8 3b d3 22 f1 ba 4f 5b 35 3a
       0.0043323603 0.005145325 -0.0018397219 0.0006918208
0000f0 93 c6 28 3c b8 7e b0 bb 0e 48 09 bc cc f8 3b bc
       0.01030125 -0.0053862 -0.008378996 -0.011472892
000100 28 c4 9c 3b e2 24 c5 ba 70 4c 95 bc 81 22 a0 bb
       0.004784126 -0.0015040899 -0.018224925 -0.0048869257
000110 fa 4a 81 3c 53 ae f5 39 42 b5 aa bc 38 71 e7 bc
       0.015782822 0.00046859923 -0.020838384 -0.02825223
000120 74 4b 31 bc 87 18 2e 3b 9b 3b 0f bc aa 8b 32 bc
       -0.010821212 0.0026564912 -0.008742238 -0.010897556
000130 c9 4b 13 bc 15 c8 41 3b cd 52 b2 3b fb 33 b3 3b
       -0.008990237 0.002956872 0.0054419995 0.005468843
000140 9b dc 0e 3c a3 a5 d0 3a 94 5d 39 bc ca fc ef bb
       0.008719589 0.0015918504 -0.011313815 -0.007323836
000150 36 02 74 bb 45 8a a3 3b e4 95 a7 bb bf e4 31 bb
       -0.0037232763 0.0049908482 -0.005114304 -0.00271444
000160 3b 2d 4a 3b ba e9 8a bc a5 41 70 bb b3 75 9d 3b
       0.0030849713 -0.016957153 -0.003666022 0.0048052906
000170 f4 13 59 3b 7f 1e 0c 3c 54 cd 11 3c 9e 61 5d 3b
       0.0033123465 0.008552193 0.008899052 0.0033780108
000180 58 df a1 3b 36 d6 c2 3b f1 55 4d 3b 29 a5 83 3b
       0.0049399547 0.005945946 0.0031331743 0.0040174914
000190 ff ee 54 bb 23 d7 0d bc 18 b9 b5 bb 35 0f 0f 3b
       -0.0032491086 -0.00865725 -0.0055457465 0.0021829132
0001a0 9a eb 0f ba 06 34 96 bb b4 41 4c bb af 34 3b bc
       -0.00054901245 -0.0045838384 -0.0031167092 -0.011426135
0001b0 29 0a 9f bb bc 36 36 bc b5 29 93 bc 5e 63 65 bc
       -0.004853506 -0.011121448 -0.017964223 -0.014000742
0001c0 9b ec fa 3b 2b 9a 38 3a f3 5d c8 bc 8b fd f5 bc
       0.0076576 0.0007042016 -0.024458861 -0.030028125
0001d0 64 81 7b bc 03 63 75 bb 56 f9 2e bc fc a1 95 bb
       -0.015350673 -0.0037443049 -0.0106795635 -0.004566429
0001e0 b0 35 0b bc 01 68 18 bb e8 34 7c 3b 17 70 13 3b
       -0.008496687 -0.002325535 0.0038483683 0.002249723
0001f0 86 b0 2e 3c bf 5a 7e 3b 73 b9 c3 bb ae 57 32 bb
       0.010662204 0.0038811413 -0.005973035 -0.0027212906
000200 2f f9 01 3a 3c 53 f8 3a 92 2f 00 bc c7 d8 b4 3a
       0.0004958091 0.0018945704 -0.007823842 0.0013797515
000210 7c 40 5d bc a0 fc 4b 3b d9 f5 04 bc 06 52 9d 3b
       -0.013504144 0.0031125918 -0.008115255 0.0048010377
000220 ab d2 a1 3a 50 3b 0d 3c 57 05 0e 3c e0 4f ce 3b
       0.0012346109 0.008620098 0.008668265 0.006296143
000230 6f 97 12 bc 1f c9 e8 ba 32 39 7b bb fb 4f fa bb
       -0.008947237 -0.0017760134 -0.0038333652 -0.007638929
000240 c2 9c 1b ba f9 26 60 3c 96 02 65 3c 78 a8 6e ba
       -0.00059361395 0.013681167 0.013977667 -0.00091040833
000250 c1 fa 07 bb bc ab d7 b9 0d bf a8 3b 52 1b 1e 3c
       -0.0020748826 -0.00041135948 0.005149728 0.009650068
000260 ab ad 35 3c 63 53 3f 3c 49 74 80 3b de 78 30 bc
       0.011088769 0.011677596 0.0039201123 -0.0107710045
000270 e8 f1 81 bc 5b ed 46 bc 96 f6 34 bc 30 e7 d5 3b
       -0.01586242 -0.012141551 -0.011045119 0.006527804
000280 c8 f9 51 3c 82 cc 2e 3b 92 94 ca 3b ba fb 01 bc
       0.0128159 0.002667219 0.0061822617 -0.007933551
000290 f9 d0 38 3c 38 db bc 3b 6f ab eb 3b e4 6f 11 3c
       0.011280292 0.0057634376 0.0071920673 0.008876774
0002a0 20 c8 63 3b 8a 7a 64 3c 2f 6b 52 3c b4 4b 8d 3c
       0.0034756735 0.013945231 0.012842937 0.017248012
0002b0 34 b1 13 3c 64 31 5b bc 97 99 55 3b 99 42 15 3c
       0.0090144165 -0.013378475 0.0032592767 0.009110116
0002c0 b4 30 e5 ba af 73 b7 3b 28 73 03 bc 5c 8a 36 bb
       -0.0017485828 0.0055985074 -0.008023061 -0.0027853465
0002d0 ac 06 14 3c e0 27 2c 3b 68 31 02 3b 11 6d dd 3b
       0.009034794 0.0026268885 0.0019865874 0.0067573865
0002e0 30 2d aa bb fb e6 17 3b 30 0b 0a bb c2 1f 4d bb
       -0.005193375 0.0023178447 -0.0021063797 -0.0031299447
0002f0 f1 1b 21 3b 33 cc 19 3c 13 49 fc 3b ff a0 43 bb
       0.0024583305 0.009387064 0.007699141 -0.00298506
000300 93 00 6c 3b 61 d1 06 3b f0 16 82 3c 1a 41 9c 3c
       0.0036011084 0.0020571577 0.015880078 0.019074012
000310 2c 39 7f 3c 87 55 1e 3c 6b d7 e2 3b 6b ff 5d bc
       0.015577596 0.009663946 0.0069226525 -0.013549666
000320 ad 46 4d bc 09 c6 76 bc 44 ad d7 bb 35 da 1d 3c
       -0.012529057 -0.015061864 -0.006581934 0.009634544
000330 ac 71 61 3c 5c a1 f4 3a e5 a0 3d 3b 7d 40 e2 ba
       0.013760012 0.0018663811 0.0028935012 -0.0017261651
000340 d2 4d 53 3c 5c ee 40 bb 60 98 0a 3c b2 ee 5b ba
       0.012896972 -0.0029438948 0.008459181 -0.00083897554
000350 be 10 96 3b 8a 19 4d 3c 44 5b 6c 3c bb 6b a8 3c
       0.0045796325 0.012518296 0.014426056 0.020559182
000360 d5 34 23 3b a6 9c 4a 3a 32 e0 33 3c f7 e5 d8 bb
       0.0024903317 0.0007729031 0.010978745 -0.006619211
000370 cd 6c e4 3a 71 bf e3 bb 42 23 e1 bb 5c d9 ad 3a
       0.0017427445 -0.006950312 -0.006870658 0.0013263631
000380 b2 0e b2 3b f8 5d 8c 3b 92 1b d3 3b 01 e4 00 3c
       0.0054338807 0.004283663 0.0064424956 0.00786686
000390 a5 f2 42 3c 24 40 ab bb b3 ac f6 bb 67 95 9f bc
       0.011898671 -0.005226152 -0.0075279116 -0.01948042
0003a0 fa d2 6d bc df 38 62 bc f0 a2 8f bc 30 c9 9a bb
       -0.014515633 -0.013807504 -0.01753375 -0.0047236905
0003b0 80 4c 1e bb ba 64 0c bb 3a d2 fa bb fd 46 28 bc
       -0.0024154484 -0.0021422342 -0.0076544555 -0.010270831
0003c0 b9 5e b8 bc 36 24 06 bc 43 ef 8d bc 44 e0 4e bc
       -0.022506105 -0.008187344 -0.017326003 -0.012626711
0003d0 74 63 0f 3c 5c 33 31 3a 57 c9 30 bc c2 3e 99 bc
       0.008751739 0.00067596673 -0.010790191 -0.018706683
0003e0 f6 28 fd bb 4e 8c 00 bc 01 8b 10 bc 02 3e 85 3b
       -0.00772583 -0.007845951 -0.008822204 0.00406623
0003f0 16 0e ad ba 11 7a ad bb ac 86 13 3a a7 41 89 3a
       -0.001320305 -0.0052940925 0.00056276727 0.0010471836

bias f4 [2]
000000 ef 28 19 3f f9 27 19 bf
       0.59828085 -0.5982662
