models/p300_reps3.pt (torch, 50873 bytes, 18 tensors)

weight f4 [8, 1, 1, 125]
000000 b1 47 0f be 99 83 31 be 1e 2a 47 be c6 03 3e be
       -0.13992192 -0.17335357 -0.1944966 -0.18556127
000010 f1 af 28 be e1 a7 0d be 03 1e ea bd a2 6c ab bd
       -0.16473366 -0.13833572 -0.114315055 -0.083703294
000020 72 0d 84 bd b3 85 58 bd 04 82 31 bd 3a f5 c1 bc
       -0.06447877 -0.05286188 -0.043336883 -0.023676503
000030 91 1a be ba 94 78 b7 3c 9e a4 3e 3d e5 db 9b 3d
       -0.0014503767 0.022396363 0.04654371 0.07610301
000040 25 07 dd 3d 57 f1 11 3e 06 af 35 3e 3a 3e 50 3e
       0.10792378 0.1425222 0.17742547 0.20336238
000050 dc e4 5d 3e 78 a3 58 3e b4 ba 3f 3e a7 cd 1f 3e
       0.21669334 0.21156108 0.18723565 0.15605794
000060 a0 9f f6 3d ca 15 b3 3d 24 a8 77 3d 3d f5 32 3d
       0.12042165 0.0874439 0.060463086 0.04369091
000070 f1 80 f8 3c 61 11 98 3c 4c 2f 01 3c af fd 09 39
       0.030334922 0.018562974 0.007884812 0.00013159843
000080 0e 7e a2 bb e1 29 f9 bb 9a 1d 21 bc 48 57 44 bc
       -0.0049588745 -0.0076038693 -0.009833718 -0.0119837
000090 aa c6 8a bc 48 9e be bc 42 ee e5 bc 5b e4 e3 bc
       -0.016940434 -0.023268834 -0.028067712 -0.02781885
0000a0 4f 6c c4 bc 58 2d ab bc 92 e2 cc bc 77 c1 31 bd
       -0.023977427 -0.020895645 -0.02501038 -0.043397393
0000b0 77 21 99 bd 5f aa ea bd 00 c3 1f be 4c 0e 4e be
       -0.07477086 -0.11458277 -0.1560173 -0.20122641
0000c0 a6 c0 70 be 7c d8 80 be b4 b7 7a be 98 5a 67 be
       -0.2351099 -0.25165164 -0.2448414 -0.22593153
0000d0 37 8f 3b be 2e 57 00 be f9 63 81 bd 3d 24 29 bc
       -0.18316351 -0.12533256 -0.063178964 -0.010323581
0000e0 93 c8 0c 3d b0 5f 8d 3d ab 9c bf 3d de a1 e1 3d
       0.03437097 0.069030166 0.09356054 0.11017202
0000f0 27 02 ee 3d 94 08 e7 3d dc 4b d4 3d 8e 60 cd 3d
       0.11621504 0.11280933 0.103660315 0.10028182
000100 be e0 c9 3d da 00 cc 3d 52 a7 d3 3d 67 7c ec 3d
       0.09857319 0.099611 0.10334648 0.11547165
000110 eb 5e 03 3e fa 6c 0f 3e 92 b8 18 3e 59 46 27 3e
       0.12829177 0.14006415 0.14914158 0.16335429
000120 77 59 30 3e ec eb 33 3e 30 f0 30 3e f0 a9 24 3e
       0.17221628 0.17570466 0.17279124 0.16080451
000130 e5 4c 0f 3e 30 0b e0 3d 68 2f 90 3d 0f 61 c2 3c
       0.13994177 0.10939634 0.07040292 0.023727922
000140 35 84 c5 bc de f8 8b bd bc 99 d7 bd 86 8b 09 be
       -0.024110893 -0.06834577 -0.105273694 -0.1343213
000150 ae 48 1e be 94 e7 29 be 5a 6d 2b be 91 d3 1b be
       -0.15457413 -0.16592246 -0.16740933 -0.15217425
000160 dc 50 04 be 3f 97 d0 bd 6c b5 95 bd 38 ab 48 bd
       -0.1292147 -0.10185098 -0.07309994 -0.048991412
000170 c3 a9 f8 bc ce 02 a0 bc 6c ea 91 bc 09 31 bb bc
       -0.030354386 -0.019532587 -0.017811976 -0.02285053
000180 9c ae 0e bd 8c 99 4c bd 91 6c 84 bd d5 41 a9 bd
       -0.03483449 -0.04995112 -0.0646602 -0.082645096
000190 57 a8 c3 bd 74 7c d2 bd 34 97 d4 bd 2f 1f d5 bd
       -0.09553593 -0.10277644 -0.10380402 -0.104063384
0001a0 04 82 c2 bd 8b f0 9d bd 16 9d 5b bd 4a 39 05 bd
       -0.09497455 -0.077118956 -0.053616606 -0.03252534
0001b0 63 27 26 bc 32 13 50 3c 77 ef 10 3d 27 c6 59 3d
       -0.010141226 0.012699889 0.03538462 0.05316749
0001c0 08 34 92 3d 7e 44 b5 3d 55 7e d2 3d ed fc df 3d
       0.071388304 0.088509545 0.10278002 0.10936914
0001d0 7b 98 e1 3d 00 da d0 3d de 0d ab 3d 31 a5 83 3d
       0.110154115 0.1019783 0.08352254 0.06427992
0001e0 ca c5 1f 3d 09 87 06 3c 1e ec d3 bc ff b6 53 bd
       0.039006986 0.008210906 -0.025869425 -0.05168819
0001f0 55 c1 9b bd f4 08 b7 bd 27 ba 78 bd ed 64 0f bd
       -0.076052345 -0.089372545 -0.060724404 -0.03500836
000200 58 b3 98 bc e0 b1 b5 bb 0b 8d 4a 3b 3b 88 8b 3b
       -0.018640205 -0.005544886 0.0030906822 0.0042581833
000210 bd 01 a2 bc 98 cf 0a bd 66 99 0c bd 32 fb d3 bc
       -0.01977622 -0.033889383 -0.03432598 -0.025876615
000220 83 f9 80 bc 84 94 14 bc 6b 53 fe bb 84 e3 0a bc
       -0.015743976 -0.009068612 -0.007761409 -0.0084770955
000230 c8 f8 9d bb 63 1e 2d 3b f4 c9 51 3c 5a b7 9a 3c
       -0.004820917 0.0026415817 0.012804497 0.018886257
000240 4e 1d 01 3d 93 fe 32 3d 38 4c 5d 3d 9b 72 5d 3d
       0.031522088 0.043699812 0.054027766 0.054064374
000250 14 c5 32 3d 4b d8 c0 3c 65 6e 94 bb 95 99 1c bd
       0.04364498 0.023540637 -0.0045297616 -0.038232405
000260 95 22 a3 bd 41 c9 f7 bd 97 ec 27 be b2 b0 56 be
       -0.079655804 -0.12098933 -0.16398846 -0.20965841
000270 ae a2 73 be db 7d 83 be f3 03 7b be 42 cc 5b be
       -0.23792526 -0.25681958 -0.24513225 -0.21464637
000280 bd 96 27 be ab cb de bd 72 ed 5f bd 12 03 a8 3b
       -0.16366096 -0.1087869 -0.054669805 0.005127319
000290 ae bc 90 3d 7e eb 07 3e 20 37 3e 3e 31 3d 6c 3e
       0.07067238 0.13273427 0.18575716 0.23070218
0002a0 fe e7 86 3e 24 1e 93 3e ef bb 98 3e f0 9b 95 3e
       0.2634887 0.28733933 0.29830882 0.29220533
0002b0 9e 43 9c 3e d6 df 9a 3e cc d8 90 3e 30 cd 82 3e
       0.30520338 0.30248898 0.28290403 0.2554717
0002c0 eb 72 61 3e be 2a 34 3e 88 08 06 3e 46 0c 90 3d
       0.22016494 0.1759443 0.13089192 0.07033591
0002d0 2a a8 82 3c a2 c5 41 bd 83 79 d4 bd 0b b4 23 be
       0.015949327 -0.047307618 -0.10374739 -0.1598665
0002e0 2c b5 55 be 33 54 79 be b8 ef 86 be e3 c6 86 be
       -0.20869893 -0.24348526 -0.26354766 -0.26323614
0002f0 34 6e 86 be 0a f6 75 be 0c 4b 5e be 8b d4 43 be
       -0.26255953 -0.24019638 -0.21708316 -0.19124047
000300 1d 3e 35 be 34 ae 12 be 28 7f e2 bd 7d bd 84 bd
       -0.17699476 -0.14324266 -0.110594094 -0.064814545
000310 f4 7c d5 bc 4e a6 c8 3c 29 69 86 3d 91 24 e8 3d
       -0.026060559 0.024493363 0.065630265 0.113350995
000320 89 c7 16 3e 70 f7 32 3e 65 31 35 3e 9e 86 33 3e
       0.14724554 0.17477202 0.17694624 0.17531821
000330 a3 c9 32 3e d9 dc 36 3e f0 e5 2c 3e 9d 6d 30 3e
       0.17459731 0.17857684 0.16884589 0.17229314
000340 e0 96 28 3e d8 e1 15 3e 47 ba ee 3d 2c f9 9e 3d
       0.16463804 0.14636934 0.11656623 0.077623695
000350 3c 80 32 3d 3e 64 db 3b 73 10 a7 bc 03 22 29 bd
       0.043579325 0.0066952994 -0.020393586 -0.0412922
000360 ea 28 8d bd a4 42 b3 bd 3b 36 ce bd 33 ec 0c be
       -0.06892569 -0.08752945 -0.100689374 -0.13761978
000370 64 f1 22 be ab e1 2e be 19 ce 39 be 15 65 31 be
       -0.15912396 -0.17078273 -0.18145026 -0.17323716
000380 e0 c0 1c be 02 54 de bd 24 f8 a6 bd 2e b7 36 bd
       -0.15307951 -0.10855867 -0.08152798 -0.044608288
000390 72 41 17 bc f9 58 4c 3c c8 7c a4 3c 81 1d d3 3c
       -0.009231912 0.012472385 0.020079032 0.025770904
0003a0 a0 5e 2d 3d 15 17 72 3d a4 3c 65 3d f0 82 0f 3d
       0.04232657 0.059104044 0.055966035 0.03503698
0003b0 f0 c9 6e 3d ce 7a 67 3d 8b c4 67 3d 69 30 64 3d
       0.05829805 0.0565136 0.056583922 0.05571023
0003c0 17 6a 8a 3d ba 6e 9e 3d c0 8f 8f 3d c4 b7 5d 3d
       0.06758516 0.07735963 0.0700984 0.05413033
0003d0 94 db 07 3d 63 53 c3 3b 02 89 4e bc 4a 9e 40 bd
       0.03316839 0.005960868 -0.012605907 -0.047025956
0003e0 ef 88 8a bd e3 1e d0 bd d2 93 6b bd a6 52 e6 bd
       -0.06764399 -0.10162141 -0.05751402 -0.11246233
0003f0 c7 65 03 be 17 f0 f6 bd 50 2e ac bd d5 c7 36 bd
       -0.12831794 -0.12057512 -0.08407271 -0.04462417

weight f4 [8]
000000 d7 89 8f 3e af 39 9b 3e 2b 6c 95 3e 4e 8d 9f 3e
       0.2803485 0.30317447 0.29184088 0.31162494
000010 57 d7 90 3e a4 16 5b 3e 6f 3d 85 3e f7 74 7c 3e
       0.2828929 0.21395355 0.26023433 0.24653994

bias f4 [8]
000000 48 4f 9b b9 d8 06 f1 b7 03 ed 93 ba 09 8f f7 ba
       -0.00029622973 -2.8732626e-05 -0.0011285845 -0.0018887232
000010 47 f2 a3 ba 90 e7 4b b9 16 8b 7d 39 01 27 05 b9
       -0.0012508117 -0.00019445852 0.00024179774 -0.00012698398

running_mean f4 [8]
000000 49 f4 f0 bc 33 09 1e bc d5 36 3f 3c 26 a7 9d bd
       -0.02941336 -0.009645748 0.011670788 -0.07697897
000010 f6 a0 2b bd db cd 17 be a3 b5 35 bc 14 f1 4a bc
       -0.04190155 -0.14824621 -0.011090669 -0.012386579

running_var f4 [8]
000000 6d 07 c8 40 f7 ba f7 40 98 55 89 40 d4 e6 70 41
       6.2509065 7.741573 4.2916985 15.0563545
000010 2d 94 39 41 1e 0a 98 40 44 26 4f 40 d7 66 29 41
       11.598676 4.751235 3.2367105 10.587607

weight f4 [16, 1, 8, 1]
000000 40 88 a3 3e e8 80 34 be 1e c5 6e be d9 35 74 3c
       0.31939888 -0.17627299 -0.23317382 0.014905416
000010 b5 be 36 be c9 7c ba 3b 81 ed 95 3e c0 04 af bc
       -0.17846186 0.005691145 0.29282764 -0.02136457
000020 ca 49 f8 3d 82 bb a2 bd 8f fa 93 be 1d 38 87 be
       0.12123449 -0.079459205 -0.289021 -0.2641
000030 7c c8 2a 3e 60 87 1b 3e 1c e5 9e 3e 40 d7 be 3e
       0.16678041 0.1518836 0.31034172 0.37273598
000040 f9 16 78 3e 96 55 84 3e 36 d4 0a 3d c1 4f 51 bc
       0.24227513 0.25846547 0.033893786 -0.0127753625
000050 6f 48 df bd 82 f8 52 be 69 92 de bd f3 b0 82 3d
       -0.109024875 -0.2060261 -0.10867769 0.06381407
000060 88 01 63 3d 61 e9 3a 3c c6 af b0 be 59 d3 12 be
       0.055421382 0.011408181 -0.34509104 -0.14338435
000070 ac 45 53 be 4e 18 95 be 24 86 06 3f 04 9d b7 3e
       -0.20632046 -0.29120106 0.5254843 0.3586198
000080 c7 26 9c 3d d9 3f 91 3c a1 6f b5 3d 6e f5 34 3c
       0.07624584 0.01773064 0.08859182 0.011044843
000090 1e 47 cb be 90 f0 92 be 92 a2 d0 3d 6d c4 0e 3f
       -0.39702696 -0.2869916 0.10187258 0.5576847
0000a0 b3 7c 91 3d 3b ae 10 3b 75 3a 49 be 24 1b 00 be
       0.071038626 0.0022076506 -0.19651206 -0.12510353
0000b0 39 11 89 be e0 ad ee bb 19 73 ac 3e 00 7c 00 3f
       -0.26770952 -0.007283911 0.33681563 0.5018921
0000c0 89 1c bd bd f4 38 ec bd 46 a3 b7 bd 4c b5 dc be
       -0.09233958 -0.115343004 -0.08966689 -0.4310707
0000d0 57 be 98 bd 3b f7 f5 3e a1 7b 85 3d a8 44 1e be
       -0.074581794 0.48040184 0.06517721 -0.15455878
0000e0 e8 3e a9 3e 4b 7c 4f 3e d1 51 c9 bd d1 f9 8c 3e
       0.33055806 0.20262258 -0.09830058 0.27534345
0000f0 61 96 ef bd 00 28 60 bd cd c1 02 3d 9a ac 60 3d
       -0.116986044 -0.054725647 0.031923104 0.054852106
000100 c1 10 a8 be 61 49 8e 3c 29 cc 5b bd d1 ca f1 be
       -0.32825282 0.017368974 -0.0536615 -0.4722505
000110 f1 e5 a8 bc e9 bd 30 3e 21 c6 b7 3d 1b 15 ae 3e
       -0.020617457 0.17259945 0.08973337 0.34000477
000120 db ac 65 be c3 02 b4 bc 3c e7 83 bd 62 c6 66 be
       -0.2242922 -0.021973973 -0.06440589 -0.22536615
000130 c2 9d 5c be 89 e4 51 be 11 12 e7 3d ee 0c 17 bd
       -0.21544555 -0.20497335 0.11282743 -0.036877565
000140 e7 79 68 2e e5 9e 21 2f d7 d2 98 2e c7 6b c8 ac
       5.2858964e-11 1.4699315e-10 6.9496124e-11 -5.6963076e-12
000150 78 f1 f8 a8 f2 fe 58 2e 85 03 f8 2c e0 b2 89 2d
       -2.7638251e-14 4.933915e-11 7.0489747e-12 1.5654533e-11
000160 b7 c2 2a bd dd 27 18 3c 84 b1 20 3e 8a 11 b9 3e
       -0.0416896 0.009286848 0.15692717 0.36146194
000170 98 65 de bd 3d a8 f0 3c 06 1f 13 be cf 97 83 bc
       -0.10859221 0.029377097 -0.14367303 -0.016063599
000180 00 15 1e bd da 96 8a bc d8 1b ac be 88 eb 5a be
       -0.038594246 -0.016917635 -0.33614993 -0.2137891
000190 2c ae 04 3e ad 1a ee bd 9a f5 c6 3e 48 3e cb 3e
       0.12957066 -0.11626182 0.38859254 0.39695954
0001a0 05 27 bb b9 3c 6b c5 3d cc 01 dc ba 17 d4 2a 3d
       -0.0003569649 0.09639594 -0.0016785203 0.04170617
0001b0 2d 24 a4 be e5 c6 0c bf 37 d0 8d 3e a5 65 73 3e
       -0.3205885 -0.5499099 0.27697918 0.23769243
0001c0 e8 4e 89 3d 26 e8 a0 3d 5b f6 dd be f9 cf aa be
       0.06704503 0.07856779 -0.43352017 -0.33361796
0001d0 fb 5e f5 3d ef 7c 65 be 24 88 4a bd 43 f5 ad 3d
       0.11981007 -0.2241094 -0.04944624 0.084940456
0001e0 20 29 b2 bd 9f 92 83 bd 86 db ea 3d 7b 56 71 3d
       -0.0869925 -0.0642445 0.11467652 0.058920365
0001f0 b5 a8 f8 be 25 8b f8 bc ea 26 2f be 71 a1 5c bd
       -0.48566213 -0.030339787 -0.17104688 -0.0538649

weight f4 [16]
000000 6e 18 bb 3e cf 57 a0 3f fc 51 c9 3e 93 1f d3 3f
       0.36542076 1.2526797 0.39320362 1.6494011
000010 f1 a6 26 3f c0 33 7e 3f b9 90 84 3f c1 fb 4a 3f
       0.6509848 0.99297714 1.0356666 0.79290396
000020 08 12 81 3f b8 06 67 3f 4f af 0c 2f 1e b6 b1 3e
       1.0083628 0.90244627 1.2795208e-10 0.34709257
000030 66 25 7b 3f 16 ae 1f 3f 02 82 74 3f 48 82 47 3f
       0.9810394 0.6237501 0.95510876 0.7793317

bias f4 [16]
000000 0b 87 ba bc 18 cc 0e bf 8c 01 02 3d 50 7d 46 bf
       -0.022769472 -0.5578017 0.031739756 -0.7753496
000010 2b 49 c3 bd d2 63 4e be e5 ce d3 be 32 93 85 be
       -0.0953544 -0.20155266 -0.41368786 -0.26088864
000020 8d 12 ee be ac 84 90 be 01 40 26 af 98 19 d7 bd
       -0.46498528 -0.2822622 -1.5120351e-10 -0.105029285
000030 fb 8e 54 be 51 56 b6 bc 9b b1 06 bf e1 1c 78 be
       -0.20757668 -0.022257956 -0.52614754 -0.24229766

running_mean f4 [16]
000000 ed 7c be b8 25 79 b3 ba 1a ec 01 3a aa 4c f5 b8
       -9.083175e-05 -0.001369272 0.00049561413 -0.0001169679
000010 18 44 1b b9 9f d4 a8 38 95 80 09 bb 4b 41 d1 3a
       -0.00014807319 8.050468e-05 -0.0020981182 0.0015964893
000020 f4 74 00 bb 89 5d 03 38 2f d3 c1 2b bb b2 71 3a
       -0.001960096 3.1319945e-05 1.377209e-12 0.00092200533
000030 96 4c 0f ba 30 91 13 3a 63 c8 06 3a ca d5 85 39
       -0.0005466429 0.00056292396 0.0005141554 0.00025527022

running_var f4 [16]
000000 1c ae 1f 3c 16 0f 11 3d f8 31 53 3c a6 13 17 3d
       0.009746101 0.035414778 0.012890331 0.036883973
000010 e5 aa 62 3c a7 6f e3 3c 5e 7c 91 3c 29 73 ea 3c
       0.01383469 0.0277632 0.017759498 0.028619366
000020 ed 56 ab 3c 0f 5e 46 3d fe 9a e4 1e fc f7 70 3b
       0.020915473 0.048429545 2.4204542e-20 0.0036768904
000030 ba 18 e0 3c 0b df 71 3c 10 79 0a 3d ad ee b9 3c
       0.02735554 0.01476265 0.03380686 0.022696817

weight f4 [16, 1, 1, 31]
000000 31 bd 57 bb ff 00 14 bd 22 75 03 bc b2 11 ff 3c
       -0.0032919163 -0.036133762 -0.008023532 0.031136367
000010 46 86 a0 3d d8 3e 80 3d bd f3 eb bc 7e fb 26 bd
       0.078381106 0.062619865 -0.028802747 -0.040767185
000020 c5 90 4a bd 1a 4b 6c bd d5 df e3 bd c3 6f bb bd
       -0.04945447 -0.05768881 -0.11126677 -0.09152176
000030 2c 1e 10 3d 60 49 07 3e 4f fc 06 3e 38 c0 af 3d
       0.035185024 0.13211584 0.13182186 0.08581585
000040 2f dc c6 3d 30 48 a1 3d b7 52 15 bd f2 dc 2b be
       0.097099654 0.07875097 -0.036455836 -0.16783503
000050 23 e4 6d be cd 31 71 be 71 ef 0a be 25 99 e3 bc
       -0.23231559 -0.23554154 -0.13567902 -0.027782986
000060 3d 8a 3e 3b 72 04 ab 3c 2e 21 0e 3d b5 8f a3 3d
       0.0029074096 0.020876143 0.03469961 0.07986394
000070 63 df 2b 3d 42 1f 93 3b f8 5e 38 bd 96 25 0f 3e
       0.041961085 0.00448981 -0.045012444 0.13979182
000080 85 0a 5d 3e 5e b0 23 3e fe 45 45 3e d9 96 4c 3e
       0.21586044 0.15985247 0.19264981 0.19979419
000090 bf 27 51 3e c8 40 58 3e 0e 3e 54 3e 76 69 bc 3d
       0.20425318 0.21118462 0.20726797 0.091998026
0000a0 02 1f 4e bd 2e e5 12 be 36 e0 d4 bd 19 2d 5b 38
       -0.05032254 -0.14345238 -0.10394327 5.225567e-05
0000b0 6b 5b 05 3e 2e ce fc 3d 0d 36 35 3c e6 d3 a8 bd
       0.13023154 0.12344013 0.01106025 -0.082435414
0000c0 c4 e4 db bd de fd e9 bc 98 3e f3 3d 6e 08 2d 3e
       -0.10736993 -0.028563436 0.11877173 0.16897747
0000d0 bb 59 27 3e d2 db 68 3c e3 74 a8 bd 19 33 ee bd
       0.16342823 0.0142125655 -0.08225419 -0.1163084
0000e0 61 a9 65 bd 40 85 a9 3c 9e 53 8f 3d 90 ab 8b 3c
       -0.056069735 0.020693421 0.069983706 0.01704958
0000f0 4c e3 f6 bc 90 75 17 3e d9 c6 b4 bc 74 02 0f bd
       -0.03013768 0.1479094 -0.022067474 -0.03491445
000100 32 5e 0e bd 65 b7 48 3c 94 f1 83 3c e4 2d f0 3c
       -0.0347578 0.012250756 0.016106404 0.029318757
000110 04 1e 4d bd 18 13 6a bc a3 c1 34 bd 46 33 59 bd
       -0.050077453 -0.014286779 -0.04412998 -0.053027414
000120 f9 79 a4 3c b8 28 36 3d ae db d2 3d 5f 18 40 3d
       0.020077692 0.044472426 0.10295807 0.046898242
000130 45 3e 59 bd e2 f4 1e be dd 96 15 be 6a e8 19 bd
       -0.0530379 -0.15523103 -0.14608331 -0.037575163
000140 d9 04 e0 3d 94 ef 36 3e 6f c5 ee 3d 08 21 8e bd
       0.109384246 0.1786483 0.11658751 -0.06939894
000150 25 ab 55 be 21 5b 3f be 98 92 63 bd 16 fd 04 3e
       -0.20866068 -0.18687107 -0.055559725 0.1298717
000160 06 d0 58 3e 7c d4 48 3e 94 2e d3 3d c7 1e b2 bd
       0.21173105 0.19612306 0.103116184 -0.086972766
000170 67 8b 81 be 6e f8 2e 3e 12 d4 20 3e ea 79 50 3e
       -0.25301668 0.17086956 0.15705898 0.20359007
000180 09 48 76 3e a5 e3 0b 3e 7a 62 ee 3d 81 c4 12 3e
       0.24050917 0.13661058 0.11639877 0.14332773
000190 15 3f 62 3e 06 e9 38 3e f4 71 5a 3e 8c 18 64 3e
       0.22094376 0.18057641 0.21332532 0.22274989
0001a0 07 5f 01 3e 64 67 6e bb 90 fb 05 3d e2 98 32 3e
       0.12633906 -0.0036377544 0.03271061 0.17441133
0001b0 55 b9 cb 3d 46 a6 1b be 8d 3b 0c be 1b 7e 67 3a
       0.09947459 -0.15200147 -0.13694592 0.0008830742
0001c0 ed 4c 0c bd 28 ff 51 be 34 64 35 be 9f 3c 63 bd
       -0.03425305 -0.2050749 -0.17714006 -0.055477735
0001d0 78 69 cc 3c 0c 07 cb bd 8c f9 ca bd e8 d0 06 3d
       0.024952635 -0.099134535 -0.099108785 0.032914072
0001e0 bc 83 28 3e 1d ed 7c 3d 3b ea 69 3d 3c 3e 05 3e
       0.16456503 0.061749566 0.057108145 0.13012022
0001f0 f0 64 8f bd c1 84 cb bd 99 fb df bd 1f 0c 8b bd
       -0.07001674 -0.0993743 -0.1093666 -0.06789421
000200 37 25 b5 3c cb 15 2d bb 78 2a 14 3d 96 0b 39 3d
       0.022112472 -0.0026410695 0.036173314 0.045177065
000210 71 49 03 3e 27 20 ea 3d e1 cf 0d 3c be 7b 95 bd
       0.12820984 0.11431914 0.008655519 -0.072989926
000220 3b dd 4f bd 10 cc 30 bc be a4 3a bd f9 fe 09 be
       -0.05074809 -0.01079084 -0.045567267 -0.1347617
000230 18 7c 25 be be 58 41 be 9d 7c 63 bc 97 0a 5d 3e
       -0.1616062 -0.18881509 -0.013884691 0.21586071
000240 e0 10 73 3e 07 ae 92 bd 66 96 7c be df a5 5a be
       0.23736906 -0.07162099 -0.24666747 -0.21352337
000250 77 67 0a 3c fc c2 7f 3e 09 99 ad 3e d3 b7 5e 3e
       0.0084475195 0.24976724 0.3390582 0.21749811
000260 0a e4 78 bd b0 fb 84 be 30 b1 ac be ca 07 35 3d
       -0.06076435 -0.25973272 -0.33728933 0.04419688
000270 1a b9 8b bd 0c e8 09 be 52 0f 83 bd 5c d1 47 3c
       -0.06822415 -0.13467425 -0.063994065 0.012195911
000280 ce 1b 19 bc c6 e1 19 bd 22 fe e0 bb ed 0b 91 3c
       -0.009345008 -0.03756883 -0.0068662325 0.017705882
000290 b8 f3 5f 3d 01 15 c9 3c fc a5 fb bc 72 ef 31 bd
       0.054675788 0.024546148 -0.030718796 -0.043441243
0002a0 cb d3 b1 bd f9 f6 c4 bd 31 ee 28 bb 4c 05 ae bd
       -0.086829744 -0.09617419 -0.0025776739 -0.08497104
0002b0 f4 a6 00 be 9b 35 4a bc 89 94 04 3e 88 dc 6b 3e
       -0.12563688 -0.012341882 0.12947287 0.23033345
0002c0 b2 f0 69 3e 9d 2e 8f 3d ff 0a 37 be dc 8e 28 be
       0.22845724 0.06991313 -0.17875288 -0.16460747
0002d0 21 4b f9 3d 34 a6 c8 3e a9 4a c1 3e 55 79 02 3e
       0.12172533 0.39189303 0.37752274 0.12741597
0002e0 57 16 25 be 60 12 3b be 33 43 23 3e c5 8b 40 3e
       -0.16121803 -0.18268728 0.15943603 0.18803318
0002f0 6e 07 0e 3e 14 ca f1 3d 18 8f b6 3d 79 c1 6f 3d
       0.13870022 0.118061215 0.08914012 0.05853412
000300 5e c6 45 bb 3a 08 3a bd a2 60 16 bd 81 a1 8a bc
       -0.003017805 -0.045418 -0.03671325 -0.016922714
000310 98 82 36 3d 6a da 12 3e d0 0e 41 3e ea c4 7d 3e
       0.044558138 0.14341131 0.18853307 0.24782148
000320 89 9b 82 3e 46 17 3d 3e c0 44 d9 3d 44 00 81 bc
       0.2550929 0.1846591 0.10608816 -0.015747197
000330 cd 04 81 bd aa 51 a8 bd 23 34 a4 bd 2a 2e 25 be
       -0.06299744 -0.08218701 -0.08017757 -0.16130891
000340 f4 15 c0 bd 5f a7 3e bd 27 aa 2f 3b 95 a7 3e 3c
       -0.09379187 -0.046546336 0.00268043 0.011636634
000350 50 73 0e 3c a6 2d b7 3d c4 29 1e 3e 7d b3 0f 3e
       0.008694485 0.089442536 0.1544562 0.14033313
000360 02 43 dc 3d 0f 3b 81 3e 9c 48 4e 3e ac 86 25 3e
       0.10754968 0.2524037 0.20144886 0.16164654
000370 83 b4 c0 3d c1 2b de 3d 2c ce 9d 3d 68 3a a3 3c
       0.0940943 0.10848189 0.0770534 0.019925311
000380 4d 04 b1 bd a5 42 90 bd 33 23 d5 bb 9b 17 22 3d
       -0.086433984 -0.070439614 -0.00650444 0.039573293
000390 fb f3 d5 3d 45 44 3f 3e ad c5 61 3e 06 a6 6a 3e
       0.10446926 0.18678387 0.22048064 0.22914895
0003a0 75 6f 1d 3e f5 a9 de 3d ec fc 93 3d 85 65 13 3d
       0.15374549 0.108722605 0.072259754 0.03598549
0003b0 3c 22 5a 3c 03 de 59 bd f1 43 79 bd 01 26 8e bd
       0.013313826 -0.053190242 -0.06085581 -0.069408424
0003c0 8c 3c 66 bd b0 7c 8c bd a0 9d 7b bd 5f 3c 82 bd
       -0.056210086 -0.0685972 -0.06142962 -0.06359171
0003d0 cf 2d 35 bd 0b 08 d3 bc 42 a4 4f 3d b7 5f 9b 3d
       -0.04423314 -0.025760671 0.050693758 0.075866155
0003e0 0c a4 25 be dd 7d df bd 54 b7 a3 bd a6 7f 1b bd
       -0.1617586 -0.109126784 -0.079939514 -0.037963532
0003f0 2d c6 40 bd cc 23 c3 bd f6 98 39 be 94 88 49 be
       -0.047063995 -0.09528312 -0.18124756 -0.19681007

weight f4 [16, 16, 1, 1]
000000 3e 48 64 bd e1 1e 7f 3e fd 48 83 bd dc 22 6f be
       -0.055732958 0.24914123 -0.06410406 -0.23353142
000010 08 41 f4 3d 9c cf 81 3c 76 81 3b 3e a7 60 53 3e
       0.11926466 0.015846066 0.18311104 0.20642339
000020 fd 6e 84 be be ba 37 3e d8 a0 06 ae 61 10 06 be
       -0.25865927 0.1794233 -3.061093e-11 -0.13092186
000030 2d b7 49 3c 6c 22 e2 3d 8e f9 e6 3d 0d 1c 76 3d
       0.012311739 0.11041722 0.112780675 0.060085345
000040 e6 09 81 3b c4 33 91 3d ed 36 04 be bc 6d e6 bd
       0.0039379476 0.07089952 -0.12911578 -0.11251399
000050 2e 39 26 3e e4 fb 35 3e b7 3b 8c 3a 71 75 6b 3d
       0.1623275 0.1777187 0.0010698949 0.057485048
000060 a4 23 19 3c 5a 24 24 3e a9 79 39 2e db 61 34 3e
       0.009346876 0.16029492 4.2172186e-11 0.17615454
000070 32 f1 c6 bd 01 32 2f be c4 57 01 3e 80 aa 53 be
       -0.09713973 -0.17108919 0.12631136 -0.2067051
000080 9e be bd 3d 7a 3a 14 bd ed a6 65 3e b4 51 e8 3c
       0.09264873 -0.03618858 0.22426958 0.028359272
000090 5e 20 86 be ff 64 04 be b1 e1 39 bc c9 a8 2a 3d
       -0.2619657 -0.12929152 -0.011345313 0.041664872
0000a0 b8 a6 4a 3d 13 0b f2 bc cc 01 f5 ac f6 25 68 bc
       0.0494754 -0.029546296 -6.9635183e-12 -0.014169207
0000b0 7b 1e 0e 3e 38 e8 36 3e 0a 11 f5 3d 4d 6a d4 bd
       0.13878815 0.17862022 0.119661406 -0.10371838
0000c0 b7 11 50 be 53 57 13 be 43 3b b0 3d fd ad c1 3d
       -0.20319258 -0.1438878 0.08605053 0.09457014
0000d0 63 20 95 bd f3 77 3d be 90 fc 8e be 49 2b 1a be
       -0.07281568 -0.18502788 -0.27927065 -0.15055574
0000e0 e6 af ae 3c 41 0a b5 3c ff 2d ec ad ee 23 c9 3d
       0.02132411 0.022099616 -2.685052e-11 0.09821306
0000f0 7a 88 42 be ce e3 1b be 1a 7c 50 be 17 6d c7 3c
       -0.18997374 -0.1522362 -0.20359841 0.02434401
000100 14 be 23 3e 46 d4 ea 3d 85 ce 4e 3e d2 07 79 bd
       0.15990478 0.11466269 0.20195968 -0.060798474
000110 98 69 b6 bc a4 74 b4 bd f2 ef 12 3e 12 9a f0 3d
       -0.022267148 -0.0881131 0.14349344 0.117481366
000120 1a fe 12 be 84 fe c4 3d 6a f5 82 2e 17 57 2e bd
       -0.14354745 0.096188575 5.95531e-11 -0.042563524
000130 cc df 75 3e f5 9d 63 3e 14 f4 2c 3e 02 b1 3d 3d
       0.24011153 0.22228225 0.16889983 0.046311386
000140 9d 74 55 bc 6e e7 56 3e 3e 30 8f bd a8 32 60 be
       -0.013028291 0.20986721 -0.06991623 -0.21894324
000150 30 db 8e 3e 0a 33 03 3e de 5d d4 3d dd ef 20 3e
       0.27901602 0.12812439 0.10369466 0.157165
000160 c9 3e 3f be 7e 48 4b 3e a3 80 1e 2e 25 1e c5 bd
       -0.18676294 0.19851872 3.6039293e-11 -0.0962489
000170 3c c5 0d 3d 1c fb f1 3c 4a e9 fa 3d e9 6c 7d bc
       0.034611925 0.029538684 0.122515276 -0.015467861
000180 a9 4e b1 3d 46 de 9f bd fa c7 18 3e fc 0a a5 3c
       0.08657581 -0.07806067 0.14920035 0.02014684
000190 bf dc 71 be 93 1f 1b be fe 3f eb 3c a4 7b 64 3d
       -0.23619364 -0.15148763 0.028717037 0.055781975
0001a0 5a 6e 80 3c f7 b4 4a bc 49 65 ab 2d 9a 73 04 bc
       0.01567762 -0.012372247 1.9485429e-11 -0.008084202
0001b0 5a b0 27 3e d0 07 5d 3e 23 51 19 3e 10 9c 60 bd
       0.16375867 0.21585011 0.14972357 -0.054836333
0001c0 35 d0 73 be 2e ff f8 bd fb 64 0b 3e b1 e9 a1 3d
       -0.23809893 -0.12158047 0.1361274 0.07905901
0001d0 14 57 9d bd e6 db 2d be f0 58 80 be 53 ac 08 be
       -0.076826245 -0.16978416 -0.25067854 -0.13346986
0001e0 91 c3 d8 3b 89 fe 33 3d 76 19 fe ad ff 4d 0c 3e
       0.00661511 0.043943916 -2.8887764e-11 0.13701628
0001f0 94 69 45 be 69 8a 39 be 77 7e 24 be b8 51 fc 3d
       -0.19278556 -0.18119206 -0.16063868 0.12320274
000200 f4 d6 b5 3d 87 40 9d bd 5b df 14 3e 9e 26 0e 3d
       0.0887889 -0.07678323 0.14538328 0.034704797
000210 28 55 d1 bd b1 a8 fb bd d7 7c a5 3c 06 1d 93 3d
       -0.102213204 -0.12288035 0.02020113 0.0718327
000220 7f fc 25 3c 70 a0 4c 3c 18 12 80 2e 81 9f 33 bc
       0.010131001 0.012489423 5.82398e-11 -0.010963322
000230 1d b6 4c 3e 0b 64 79 3e 57 97 25 3e bb ba 7c bd
       0.19991346 0.2435457 0.16171013 -0.061701518
000240 2e 61 f8 3d 56 96 1f 3e 93 f0 1c 3e 87 96 d6 bd
       0.121279106 0.15584692 0.15326147 -0.104779296
000250 02 d6 93 3b 0b bf a1 bd 99 3a 04 3e a9 10 d0 3d
       0.0045115957 -0.07897767 0.12912978 0.10159428
000260 35 ab 61 be a3 7d 32 3e 02 52 18 ae 59 70 a5 bd
       -0.22037967 0.17430739 -3.4633636e-11 -0.08078069
000270 1b 5d 8a 3e ab 26 12 3e cf d0 da 3d e6 be 5d 3d
       0.2702416 0.14272563 0.10684358 0.054137133
000280 e8 ba c9 bb d4 6b 44 3e 68 b9 32 bd c7 fb 63 be
       -0.006156314 0.19181758 -0.04363385 -0.22264014
000290 54 15 11 3e 7b 94 58 3e 42 eb 96 3d 91 d0 9b 3d
       0.14168292 0.21150391 0.073690906 0.0760814
0002a0 c1 27 be bd 84 01 2e 3e a8 9c b0 2d 81 05 2c bc
       -0.09284926 0.16992766 2.0078453e-11 -0.010499359
0002b0 2c 40 c2 bd 43 0e 18 bd 82 3e d1 3d c7 c4 f8 bd
       -0.09484896 -0.037122976 0.102170005 -0.12146907
0002c0 88 0e bf 3d 65 99 2e bd be a0 07 3e bd 58 54 3d
       0.093289435 -0.042626757 0.13244912 0.05184244
0002d0 47 fa 6e be ea 98 0a be d8 c5 ff 3c f3 92 aa 3d
       -0.2333766 -0.13534895 0.031222269 0.083288096
0002e0 a4 ad 01 3d 9e 34 7a bd c0 0b c2 ad 2d 52 e6 bc
       0.031659737 -0.061085336 -2.2060465e-11 -0.028115356
0002f0 ca 10 3d 3e 0c 0c 32 3e 58 42 45 3e 33 b4 32 bd
       0.18463436 0.17387408 0.1926359 -0.043628883
000300 67 a1 90 bc ff d9 a9 3d f0 7e 3b be 46 08 fd bd
       -0.017655088 0.082935326 -0.18310142 -0.12355094
000310 a1 bb 43 3e 88 e1 1a 3e 48 93 ff bc 82 f0 03 3d
       0.19114543 0.15125096 -0.031198159 0.032211788
000320 04 74 f9 bb b9 9e 30 3e 83 55 ae ae bb b7 4a 3e
       -0.007612707 0.17248048 -7.927794e-11 0.1979665
000330 96 14 a6 bd c7 88 ec bd 7d c2 c1 3d 93 e4 4e be
       -0.08109395 -0.11549526 0.09460924 -0.20204382
000340 e3 f0 07 bc 87 8e 99 3d c1 27 1f be 34 14 27 be
       -0.008297178 0.07497888 -0.15542509 -0.163163
000350 66 db 23 3e 91 5e 1f 3e 59 83 fb 3c d3 18 fa 3d
       0.16001663 0.15563418 0.03070228 0.12211766
000360 e9 9f 8f 3d 60 c7 59 3e a2 96 22 ae c8 cc 3f 3e
       0.07012922 0.21267462 -3.6968324e-11 0.18730462
000370 81 9d 86 bd 74 d0 1e be 22 42 0f 3e da 03 49 be
       -0.0657301 -0.15509206 0.13990071 -0.19630376
000380 a7 73 3b bd 04 8d f0 3d 73 e0 da bd bd db fa bd
       -0.04576459 0.117456466 -0.106873415 -0.12248943
000390 8d ac 3d 3e a4 f1 23 3e b2 b6 b4 bb 6d 52 72 3d
       0.18522854 0.16010147 -0.005514943 0.05916064
0003a0 ff ef 2a b7 7a b6 29 3e e8 4c d6 ad 32 41 39 3e
       -1.0188668e-05 0.16573516 -2.4363137e-11 0.18091276
0003b0 1e b1 11 be e6 12 d2 bd 95 9d b5 3d 6d 38 5a be
       -0.14227721 -0.10257511 0.08867947 -0.21310587
0003c0 58 08 a2 bd 97 05 06 3e 86 45 ad bd 0c 37 6d be
       -0.07911748 0.1308807 -0.08460526 -0.2316553
0003d0 f7 22 44 3e a0 ae 04 3e 48 e2 9b 3d 10 03 0a 3e
       0.19153963 0.12957239 0.07611519 0.13477731
0003e0 ff 6f 6f bd 9e 2f 29 3e e2 24 1d 2d f3 fa 0a 3d
       -0.058456417 0.16522071 8.932606e-12 0.03393073
0003f0 cb 63 85 bd f8 92 fe bd 35 04 f2 3d 05 1f 30 be
       -0.065131746 -0.12430376 0.11817209 -0.17199333

weight f4 [16]
000000 1e ac 93 3f 8b e7 af 3f b8 67 99 3f fa f2 c9 3f
       1.1536901 1.3742536 1.1984777 1.5777276
000010 60 c3 91 3f 99 de 9a 3f 2f c7 a4 3f 3b 46 c5 3f
       1.1387749 1.2099181 1.2873286 1.5412058
000020 7f 6d 96 3f d0 e1 9d 3f e4 22 a2 3f 28 1f 9e 3f
       1.1752166 1.2334538 1.2666898 1.2353258
000030 42 36 ab 3f b1 54 c0 3f 3f b2 b6 3f f3 ca b0 3f
       1.3375933 1.5025846 1.4273146 1.3811935

bias f4 [16]
000000 9e 28 a6 3e 1c 37 23 be 21 15 c5 bd 20 c3 65 bc
       0.32452863 -0.15938991 -0.09623171 -0.014023572
000010 49 6e 61 3e be 2c 8c 3e 8d 21 77 bd 50 d3 63 bd
       0.22014727 0.27377886 -0.06033473 -0.055621445
000020 23 ea 0e bd cf 82 73 3e 00 20 9c 3d 7f 93 e8 bd
       -0.03489126 0.23780368 0.07623291 -0.11356258
000030 63 f1 4f be 83 f6 32 be e3 6b 0c be c3 e1 03 bd
       -0.20306925 -0.1747685 -0.1371303 -0.032197725

running_mean f4 [16]
000000 b3 e8 e6 bd c0 b8 17 3e 9c ac 48 3d 44 75 5b 3d
       -0.112748526 0.1481657 0.048992738 0.05357863
000010 b4 4e 53 bd eb bb e7 bc 2a f1 99 3d 2d 92 6a 3d
       -0.05158873 -0.028287848 0.075167015 0.05726831
000020 01 d4 31 3d 26 96 b2 bd 93 1b 3a 3d d2 7a 6e 3d
       0.043415073 -0.08720045 0.045436453 0.0582226
000030 d2 f8 27 3e e3 28 3e 3e d4 a6 08 3e 20 78 da 3d
       0.16403511 0.18570285 0.1334489 0.10667443

running_var f4 [16]
000000 8b 04 36 3e 7b 08 52 3e 12 94 3b 3e 27 7b 54 3e
       0.1777517 0.20511048 0.18318203 0.20750104
000010 dc cf 42 3e 47 c4 66 3e b5 22 4f 3e 55 97 57 3e
       0.19024605 0.22535811 0.20228083 0.21053822
000020 55 57 2e 3e 03 af 3e 3e 44 51 6d 3e 8f bf 51 3e
       0.17025502 0.18621449 0.23175532 0.2048323
000030 f0 72 4b 3e 5e 0f 68 3e e6 d1 57 3e 6b ad 6a 3e
       0.19868064 0.22662112 0.21076164 0.22917716

weight f4 [2, 16, 1, 132]
000000 35 04 45 3b 3f c6 af 3b 4c 04 e0 3b 9f ad af 3b
       0.0030062322 0.005364209 0.0068364497 0.0053612734
000010 0f 53 c8 3a d8 d1 f5 3a 1a 71 98 3b 46 07 f4 3b
       0.0015283542 0.0018754555 0.0046521546 0.007447156
000020 1c f7 fa 39 2c 96 f3 3a 45 88 d8 3b a2 60 d0 3b
       0.00047867827 0.0018584183 0.0066080415 0.006359176
000030 f2 0d 5b 3a 5f 4f bd 3a fb 21 d3 ba 8a 30 57 bb
       0.0008356265 0.001444321 -0.001610815 -0.0032835328
000040 f0 24 bd 3a 71 7d 57 3c 3b e1 40 3c a2 14 10 3a
       0.0014430564 0.013152466 0.011772449 0.00054962386
000050 04 50 bb bb 45 10 a0 39 5e 4f 82 3a a6 6f 5e bb
       -0.0057163257 0.000305297 0.0009941866 -0.003394106
000060 44 98 d6 39 df a9 9b 39 16 4c 9d 3b d7 7e 88 ba
       0.00040930707 0.00029690468 0.00480033 -0.0010413778
000070 97 b7 1e bb 65 48 11 3c fd a8 91 3c 2f 21 34 3c
       -0.0024218315 0.008867358 0.017780775 0.01099424
000080 74 9b 80 3b 1d ed 6d 3b 97 e9 de 39 e6 d3 c4 3b
       0.0039247815 0.003630466 0.00042517178 0.0060067056
000090 cb 6b 8d 3b e4 ca 86 3b c0 31 e3 3a de 21 b4 b8
       0.0043158284 0.004113542 0.0017333552 -8.589377e-05
0000a0 03 cf ec 3a b4 08 ae 3b db 13 c3 3b 85 53 3b 3c
       0.0018067065 0.005311096 0.0059532947 0.011433487
0000b0 76 47 16 3c ef e6 11 3c 63 cb 07 3c d0 49 8b 3a
       0.009172311 0.0089051565 0.008288237 0.0010626856
0000c0 53 f3 2b 39 6e 63 e5 38 7e 12 19 3b 5f 5c 12 3b
       0.00016398476 0.00010938091 0.002335697 0.002233289
0000d0 94 6e 2e 3a 0b 5c 8a 3b 57 48 0f 3b d0 d8 32 39
       0.00066540507 0.004222398 0.0021863186 0.00017056172
0000e0 a9 15 30 ba 3f ff 22 bb e6 c0 8c b9 89 d5 49 bb
       -0.0006717095 -0.0024871377 -0.000268466 -0.0030797443
0000f0 e6 3e 9a 3b 35 0d e1 3b a2 c2 ec 3b e4 3d c7 3a
       0.004707205 0.0068680295 0.0072253505 0.001520094
000100 02 ce 39 bc 5f 80 32 39 37 af e8 b9 69 00 74 bb
       -0.01134062 0.00017023225 -0.00044381034 -0.003723169
000110 b8 88 b2 ba 0d ab 9a bb 3d 57 05 bb fb 8b 59 bb
       -0.0013621068 -0.004720098 -0.0020346188 -0.0033195007
000120 06 78 4a 3b 8d 3c 33 3c fd e1 69 3c e6 e3 43 3c
       0.0030894293 0.010939729 0.014275071 0.011956191
000130 34 69 00 3c 64 14 12 3b 60 95 c3 3b 5f db b1 3b
       0.007837582 0.0022289986 0.0059687346 0.0054277624
000140 ea be ae 3b 8d a6 01 3c c2 af d3 3b ac b5 ac 3b
       0.0053328173 0.007913244 0.006460161 0.0052706804
000150 dc 2b a7 b9 34 e0 95 ba 5a e0 a8 3b fb 7e 06 3c
       -0.000318854 -0.0011434616 0.005153698 0.008208985
000160 ee a7 07 3c 0c 4f 05 3c 1e 1b 17 3c 41 09 aa 3b
       0.008279784 0.008136522 0.009222774 0.0051890914
000170 5c 45 a3 39 14 ee e8 ba 51 c3 b7 b9 1f a8 2b 3b
       0.0003114146 -0.0017771148 -0.00035050002 0.0026192737
000180 41 96 08 3b a6 90 8c 3b 7f bd 99 3b 2a 3e ce 3a
       0.0020841511 0.0042897044 0.004691779 0.0015735079
000190 d0 f2 7a 3a 0b 9b f5 ba a3 a8 b1 3a 5b f9 1d ba
       0.0009572925 -0.0018738223 0.0013554286 -0.00060262316
0001a0 f8 00 a2 3b f7 33 db 3b 3d 37 0b 3c 0b 98 fe 3a
       0.004943963 0.0066895443 0.008497057 0.0019423974
0001b0 e9 79 81 3a ad 40 48 bb 63 ca c4 ba 16 8d 03 bb
       0.0009878251 -0.0030556128 -0.0015013929 -0.0020073107
0001c0 fd 03 3b bb be 4d 2c 3b 11 cb 2f 3b 1f cd 21 3a
       -0.0028536313 0.0026291455 0.0026823918 0.0006172228
0001d0 1a 93 9d 3b f7 bb bf 3b 82 4b eb 3b 8a 8e 0f 3c
       0.0048087956 0.0058512646 0.007180632 0.008762011
0001e0 77 b3 af 3b c6 f8 b5 3b 46 17 d3 3b 7d 43 d4 3b
       0.00536197 0.0055533377 0.0064419834 0.006477772
0001f0 02 1d d0 3b 37 02 08 3c f1 42 97 3b 15 fb a1 ba
       0.0063511143 0.008301309 0.0046161343 -0.0012358153
000200 ab 1e 96 b9 e2 a9 c6 3b 56 c6 1e 3c b7 c3 80 3c
       -0.0002863308 0.006062732 0.009690842 0.015718324
000210 29 2c 0d b9 ec d8 bc 3b 22 0e 7f 3a 87 e2 a6 bb
       -0.00013463259 0.005763164 0.0009729584 -0.005092922
000220 3d a9 b8 bb 7a 4e 94 bb 42 7d 2a bb f4 4d 11 b9
       -0.005635409 -0.0045259567 -0.00260146 -0.00013857317
000230 38 7e e9 38 d1 5b a3 3a b7 ad e3 3b 81 a2 83 3a
       0.00011133816 0.0012463277 0.0069481987 0.0010042937
000240 9b 6e b3 ba d6 32 66 bb b2 7e de 38 88 18 0b b8
       -0.0013689579 -0.0035125515 0.00010609384 -3.316303e-05
000250 2b cf b8 ba 0a f4 27 3a 72 39 ad 3b f0 a9 5e bb
       -0.0014099827 0.0006406909 0.005286389 -0.0033975802
000260 bd 35 13 bc 0d cc 6f bc 46 27 16 bc 29 f3 cc bb
       -0.00898498 -0.014636052 -0.009164637 -0.006254573
000270 45 71 88 3a 6d 75 9b 3a 8d 2c d9 bb f1 4d dc bb
       0.0010409734 0.0011860557 -0.0066276253 -0.0067231585
000280 75 fa a2 bb d8 0f dc 3b 72 f7 fe 3b 6f 46 44 3b
       -0.0049737045 0.006715756 0.0077809626 0.0029949208
000290 6e 14 aa ba 7a 6e 03 3c ed af 28 3c 3e 88 d3 3b
       -0.0012976059 0.008021945 0.01029585 0.0064554503
0002a0 f2 1c a4 3b 48 88 3b ba 6c 5b 91 3b 71 a7 57 3b
       0.0050083334 -0.00071537914 0.004435947 0.00329062
0002b0 8d 57 83 ba 81 b6 13 3b 43 ea ce ba 1e bb 56 3b
       -0.0010020599 0.00225392 -0.0015786368 0.003276534
0002c0 c7 16 ec ba e5 72 18 3b 54 d4 a7 3b 89 eb 4a 3b
       -0.0018012159 0.0023261842 0.005121747 0.0030963144
0002d0 d3 73 47 bb 1d cd cd bb b5 3a 8d 3a cb eb 4e ba
       -0.0030434027 -0.006280555 0.0010774942 -0.0007893412
0002e0 9b b3 23 ba 77 02 d7 b9 93 16 60 3b f9 9f 06 bb
       -0.000624472 -0.00041009832 0.0034193143 -0.0020542128
0002f0 43 b7 9d b9 e7 9e 3c ba d6 b7 6d 39 73 c4 e7 ba
       -0.00030081914 -0.0007195309 0.00022670566 -0.0017682448
000300 6c 7f f5 39 8b 36 9c 3b ed a7 93 3b e7 01 7b bb
       0.00046824978 0.004767244 0.0045061023 -0.0038300694
000310 37 44 12 bc ef 4f 4d bc 94 19 19 bc 7b f6 e0 bb
       -0.0089273965 -0.012531265 -0.009344477 -0.0068653203
000320 ba d4 71 3b 43 b5 a9 3a 2e b5 bf bb 2a 60 5d bb
       0.0036900477 0.0012947697 -0.0058504557 -0.0033779242
000330 a1 fe 86 bb 22 c7 00 3b 2a 8b e5 3b ae 94 4a 3a
       -0.0041197096 0.0019649942 0.007005115 0.00077278435
000340 3b 2e 86 3a 90 b4 e6 3b 4b da 07 3c 4e 6a 05 3c
       0.0010237166 0.0070405677 0.008291791 0.008143021
000350 39 e7 03 3c ea 2a 38 3b be b7 c0 ba c3 4f e0 b9
       0.008050733 0.002810175 -0.0014703197 -0.00042784036
000360 34 c1 8d ba 6f c3 af b9 8c d3 17 b9 b9 39 e8 3a
       -0.0010815025 -0.0003352421 -0.0001447929 0.0017717398
000370 39 ce 46 39 72 ea fd 3b 6d 4c a5 3a 92 83 41 bb
       0.00018959575 0.0077488953 0.0012611278 -0.0029527885
000380 e5 f2 8d bb 1b d5 72 bb e6 e9 6f bb ac 5b 0d bb
       -0.004331934 -0.003705329 -0.003660792 -0.0021569533
000390 b0 b2 53 ba d3 a6 95 3b 36 70 d5 39 fc 8a a1 bb
       -0.0008075638 0.004567006 0.0004071013 -0.0049298983
0003a0 cf 78 12 bb dc 96 4d bb ee 15 f9 3b 1a 19 e3 3a
       -0.002234984 -0.0031370437 0.007601491 0.0017326206
0003b0 75 7a 3b 3b 5b a9 76 3b 0a 29 85 3b 9c 1d 1c 3a
       0.0028606926 0.0037637565 0.00406373 0.000595534
0003c0 97 d1 3b bc d4 d4 37 bc 1a 97 2f bc 02 40 85 bb
       -0.011463544 -0.011220176 -0.010717178 -0.004066468
0003d0 36 17 f5 3a e4 ec 29 ba f1 bd fb bb 77 97 d8 bb
       0.0018698934 -0.0006482138 -0.007682555 -0.006609853
0003e0 31 e5 c6 bb 59 f5 40 3b 88 12 0a 3c fe d3 a6 ba
       -0.006069802 0.0029443114 0.00842727 -0.0012727974
0003f0 1f 78 b0 39 80 44 08 3c e0 f5 dd 3a 65 11 0e 3c
       0.00033658833 0.008317113 0.0016934238 0.008671139

bias f4 [2]
000000 4f 1b 7e 3f 29 9e 7b bf
       0.9926042 -0.9828821
