models/p300_reps3_fast_cap.pt (torch, 50873 bytes, 18 tensors)

weight f4 [8, 1, 1, 125]
0	0x3da8e971	0.082476504
1	0x3d730c69	0.059338007
2	0x3d17905b	0.037002902
3	0x3ca9d6f9	0.02073239
4	0x3b299ec4	0.0025881985
5	0xbc865243	-0.016396647
6	0xbd005174	-0.03132768
7	0xbd1e51c6	-0.038652204
8	0xbd0456f1	-0.032309476
9	0xbc8a3e52	-0.01687542
10	0xbaa9e031	-0.0012960491
11	0x39c04afd	0.00036676964
12	0xbb97ca32	-0.004632258
13	0xbbe2fa1e	-0.006926789
14	0xb9aa0c90	-0.00032434287
15	0x3c6ff996	0.014646908
16	0x3cdc826f	0.026917664
17	0x3d03b290	0.032152712
18	0x3ced3be6	0.028959226
19	0x3c8490ad	0.016182268
20	0xb9480ddf	-0.00019078654
21	0xbcb3477f	-0.021884678
22	0xbd45d68e	-0.04830032
23	0xbd992e23	-0.07479503
24	0xbda9d82a	-0.08293183
25	0xbda2c1bc	-0.07947108
26	0xbd978ae0	-0.07399535
27	0xbd3d9362	-0.046283133
28	0xbc883674	-0.016627528
29	0x3c2e55db	0.010640587
30	0x3d099d66	0.033597372
31	0x3dadbb1c	0.08482954
32	0x3df1b1c3	0.118014835
33	0x3df8c04e	0.12146054
34	0x3db7b009	0.08969123
35	0x3d3b8f4d	0.04579096
36	0xbc509cff	-0.012732743
37	0xbd857006	-0.065155074
38	0xbdcb749c	-0.09934351
39	0xbdea66e1	-0.11445404
40	0xbe036ff2	-0.12835672
41	0xbe107f86	-0.14111146
42	0xbe137a29	-0.14402069
43	0xbe15cbaf	-0.1462848
44	0xbe012ed8	-0.12615526
45	0xbdae7a14	-0.08519378
46	0xbcfb2abc	-0.030660026
47	0x3bba9efc	0.005695222
48	0x3d28afb3	0.041183185
49	0x3d933e2e	0.07189594
50	0x3dc4868e	0.09595977
51	0x3de081fb	0.10962292
52	0x3dedd214	0.11612335
53	0x3df40ab4	0.11916104
54	0x3dfb0f88	0.12258822
55	0x3e01e847	0.12686263
56	0x3e03d19a	0.12872925
57	0x3df933bd	0.121680714
58	0x3dc8eaa1	0.09810377
59	0x3d9d7ebc	0.07690188
60	0x3d2fab21	0.04288781
61	0x3bc00046	0.0058594076
62	0xbcd326b1	-0.025775285
63	0xbd257732	-0.040396877
64	0xbd3853ed	-0.045001913
65	0xbd3b4e1e	-0.045728795
66	0xbd3ab3e1	-0.045581702
67	0xbcdeaa04	-0.02718068
68	0x3b9b9fcc	0.004749274
69	0x3d501276	0.050798856
70	0x3dd2f9ea	0.103015736
71	0x3e24c477	0.1609057
72	0x3e529e55	0.20568211
73	0x3e6f5609	0.23372664
74	0x3e7bb87e	0.24582097
75	0x3e81860a	0.25297576
76	0x3e772bf3	0.24137859
77	0x3e56ce18	0.20977056
78	0x3e209728	0.15682662
79	0x3db0c052	0.08630432
80	0x3b36ce30	0.0027893893
81	0xbdb51572	-0.08841981
82	0xbe37ae32	-0.17937544
83	0xbe867200	-0.2625885
84	0xbea2a15b	-0.3176373
85	0xbeaa3609	-0.3324435
86	0xbe9914ad	-0.29898587
87	0xbe8a6a0d	-0.27034035
88	0xbe576c9f	-0.2103753
89	0xbe0b55b7	-0.13606916
90	0xbd74bde4	-0.059751406
91	0xbd4e6abf	-0.05039477
92	0xbd1f1b5d	-0.038844455
93	0xbc4e2fe8	-0.012584664
94	0x3d125ec5	0.03573491
95	0x3d1e0ea1	0.03858817
96	0x3d32eeaf	0.043684658
97	0x3d265e28	0.04061714
98	0x3cb34487	0.021883262
99	0xbbf3bb77	-0.007438119
100	0xbd3a77e7	-0.045524504
101	0xbdae6fe7	-0.085174374
102	0xbdfd0bca	-0.12355764
103	0xbdb61c28	-0.08892089
104	0xbd5fb118	-0.05461225
105	0xbceab7ab	-0.028652033
106	0xbc82b049	-0.0159532
107	0x3cd94c2f	0.026525585
108	0x3d851a15	0.064991154
109	0x3dc6d58c	0.097086996
110	0x3dec4807	0.115371756
111	0x3e0ce2e8	0.13758433
112	0x3e15661f	0.14589737
113	0x3e14f148	0.14545166
114	0x3e0d7667	0.13814698
115	0x3e184679	0.14870633
116	0x3e0bbc35	0.13646014
117	0x3dbdb91f	0.09263825
118	0x3c7e08ca	0.015505025
119	0xbd235e7b	-0.039885025
120	0xbdce7ad7	-0.100820236
121	0xbe2501f0	-0.1611402
122	0xbe5b2829	-0.21402039
123	0xbe803cc6	-0.25046366
124	0xbe82ea0a	-0.25569183
125	0x3dd79e31	0.105282195
126	0x3d8823ab	0.06647428
127	0x3d0eefbb	0.034896594
128	0x3ccbe6f9	0.02489041
129	0x3c13a852	0.009012299
130	0xbca8932a	-0.020577986
131	0xbd76d9e6	-0.060266398
132	0xbdb636ca	-0.08897169
133	0xbdd7ab5f	-0.10530733
134	0xbdd8194e	-0.105517015
135	0xbdbf52ae	-0.09341942
136	0xbdb205e6	-0.08692531
137	0xbd935757	-0.07194393
138	0xbd285f1f	-0.04110634
139	0x3c38d3d1	0.01128097
140	0x3d860f85	0.06545929
141	0x3df8bd0b	0.12145432
142	0x3e2bcdac	0.16777676
143	0x3e4ce6cf	0.20009921
144	0x3e67c511	0.22633769
145	0x3e7c2921	0.24625064
146	0x3e868326	0.26271933
147	0x3e89c52a	0.26908237
148	0x3e8976a0	0.26848316
149	0x3e7738c8	0.24142754
150	0x3e4565f5	0.19277175
151	0x3e0699e0	0.13144636
152	0x3d8fe806	0.07026677
153	0x3c0757e8	0.008260705
154	0xbd6bf3a0	-0.057605386
155	0xbe070908	-0.13187039
156	0xbe558a6a	-0.20853582
157	0xbe91e204	-0.2849275
158	0xbeb39129	-0.35071686
159	0xbecab62b	-0.39592108
160	0xbedcfb6b	-0.43160567
161	0xbee2325f	-0.44179055
162	0xbedd170d	-0.4318165
163	0xbed00b05	-0.40633407
164	0xbec3058e	-0.38090175
165	0xbeb05285	-0.34437957
166	0xbe981b16	-0.29708165
167	0xbe77b981	-0.24191858
168	0xbe34c3df	-0.17652844
169	0xbdeabfb7	-0.11462348
170	0xbd79ede6	-0.061017893
171	0xbc87a3c2	-0.016557578
172	0x3ccf938b	0.025338909
173	0x3d88fdf7	0.06689065
174	0x3de00ba5	0.10939721
175	0x3e19412a	0.14966264
176	0x3e463beb	0.19358794
177	0x3e6af0ca	0.22943416
178	0x3e82e40b	0.25564608
179	0x3e8b0e8f	0.27159545
180	0x3e91d834	0.28485262
181	0x3e914eb6	0.28380364
182	0x3e897525	0.26847187
183	0x3e781b95	0.24229272
184	0x3e5cdab7	0.21567808
185	0x3e429b6e	0.19004604
186	0x3e2aa3db	0.16664068
187	0x3e0fc60d	0.14040394
188	0x3e09c315	0.13453324
189	0x3df0871e	0.117445216
190	0x3db134e9	0.0865267
191	0x3d377f17	0.044798937
192	0x3ce50224	0.027955122
193	0x3c6fe948	0.014643021
194	0x3bc05f5e	0.0058707437
195	0x39e26e4c	0.00043188257
196	0xbc23fcde	-0.010009019
197	0xbc939bd1	-0.018018635
198	0xbcaef77b	-0.021358242
199	0xbc9a88cb	-0.018864056
200	0xbd5bdb4d	-0.05367594
201	0xbda42f3b	-0.08016821
202	0xbdbd8644	-0.09254125
203	0xbdaf9f4c	-0.08575305
204	0xbdbd6877	-0.09248441
205	0xbdb45787	-0.08805757
206	0xbd9f9294	-0.077916294
207	0xbd88700b	-0.066619955
208	0xbd6f1f66	-0.058379553
209	0xbd4b4082	-0.049622066
210	0xbd26b549	-0.04070023
211	0xbd0f88ef	-0.0350427
212	0xbc8f0729	-0.017459469
213	0xbbe779d0	-0.0070640817
214	0xbbdf4dbb	-0.006814686
215	0xbc8269dc	-0.015919618
216	0xbc01a2ba	-0.007912332
217	0x3ba5d7d0	0.0050611272
218	0x3cb43a53	0.022000467
219	0x3d1a8c1b	0.03773127
220	0x3d2db8c6	0.04241254
221	0x3d348c37	0.04407903
222	0x3d481234	0.048845485
223	0x3d84f1e7	0.06491452
224	0x3cd38329	0.025819378
225	0x3bad4858	0.005288165
226	0x3bd42c66	0.0064750193
227	0x3ced9101	0.028999807
228	0x3c3d6744	0.011560265
229	0x3bd81812	0.0065946663
230	0x3bee505d	0.0072727636
231	0x3bb46b9e	0.005505993
232	0xbafe3a6a	-0.0019396071
233	0xbc7edde5	-0.0155558335
234	0xbd045be9	-0.032314215
235	0xbd36796b	-0.044549387
236	0xbced7c82	-0.028990034
237	0xbc04a877	-0.008096806
238	0x3c22b3eb	0.009930591
239	0x3c838b2f	0.016057579
240	0x3bf0cba6	0.0073484955
241	0x3a6cfa22	0.0009039958
242	0x3af15c2d	0.0018414311
243	0x3c295c5e	0.010336963
244	0xbb923a35	-0.004462505
245	0xbc63787c	-0.013883706
246	0xbc3e6b5a	-0.011622274
247	0x3c40abef	0.011759742
248	0x3cd9b1e0	0.026574075
249	0x3d7324a5	0.05936112
250	0x3da10897	0.078629665
251	0x3c6aa119	0.014320635
252	0xbbb39e04	-0.0054814834
253	0xbc4633dc	-0.012097325
254	0xbbd42996	-0.006474684
255	0xbb216133	-0.0024624586

weight f4 [8]
0	0x3e93093d	0.28717986
1	0x3ebfc8de	0.37457937
2	0x3e9df229	0.30848816
3	0xbc314aa9	-0.010821023
4	0x3e84e454	0.2595545
5	0x3e805f35	0.25072637
6	0x3ea4a478	0.3215673
7	0xbbca6f33	-0.0061778068

bias f4 [8]
0	0x3919bb19	0.00014660916
1	0xbaaaaa48	-0.0013020718
2	0x38f920fe	0.000118793905
3	0xb9b15966	-0.00033826678
4	0xba6bb0d5	-0.00089908886
5	0xba8856ed	-0.0010401882
6	0x3856284d	5.105911e-05
7	0xba1d5023	-0.0006001016

running_mean f4 [8]
0	0xb8e349c2	-0.00010837942
1	0xbb72c6eb	-0.0037044834
2	0xbb25e342	-0.0025312458
3	0xb955edcd	-0.0002040185
4	0xbb695ad4	-0.0035607116
5	0x3ba2b655	0.0049655833
6	0xbbce1a40	-0.0062897503
7	0x380f7766	3.4205055e-05

running_var f4 [8]
0	0x40772b2e	3.8620105
1	0x41281e39	10.507379
2	0x400d8ea1	2.2118304
3	0x3a70983e	0.00091779593
4	0x4107786c	8.4669
5	0x4123bc0e	10.233412
6	0x4108ffd5	8.562459
7	0x3b46945d	0.0030300834

weight f4 [16, 1, 8, 1]
0	0x3d0701d7	0.03296074
1	0x3c4e0b78	0.012575977
2	0xbe5485da	-0.20754185
3	0xbda0554f	-0.07828771
4	0xbe7bac3a	-0.24577418
5	0xbed04e70	-0.40684843
6	0x3ee00341	0.43752483
7	0x3e886407	0.26638815
8	0xbe556563	-0.20839457
9	0xbe454c75	-0.19267447
10	0xbec7f02d	-0.39050427
11	0xbdd33684	-0.103131324
12	0x3e11e7c2	0.14248565
13	0x3db6e6ec	0.089307636
14	0x3e47a9cb	0.19498365
15	0x3f05a4de	0.5220469
16	0xbd954d0f	-0.072900884
17	0x3c205710	0.009786382
18	0x3e1c48fe	0.1526222
19	0x3e31d563	0.17366557
20	0x3e8bdea4	0.273183
21	0x3e194671	0.14968278
22	0xbe20dec0	-0.15709972
23	0xbf3e5453	-0.7434742
24	0x3dc4c211	0.09607328
25	0x3cb68fe9	0.022285419
26	0x3c5a621b	0.013329054
27	0xbe4db3fe	-0.20088193
28	0xbedd6452	-0.432406
29	0xbe75af23	-0.2399259
30	0x3ceb1d88	0.028700605
31	0x3f456118	0.7710128
32	0xbceb5aa1	-0.028729739
33	0x3db7df1c	0.089781016
34	0x3e448697	0.19191967
35	0x3ec558f0	0.38544416
36	0xbe9323fd	-0.28738394
37	0xbd52bc8f	-0.051449355
38	0xbe96dbb2	-0.2946449
39	0xbf0ca641	-0.54941183
40	0x3d00dd5f	0.031461116
41	0xbd2cbec2	-0.04217411
42	0xbea30dfe	-0.31846613
43	0xbeae47a6	-0.34039038
44	0xbd128ba2	-0.035777695
45	0x3c9340fa	0.01797532
46	0x3e8ef354	0.2792002
47	0x3f1cde3c	0.612766
48	0x35a4633c	1.2247833e-06
49	0x3673a0da	3.630345e-06
50	0xb674801a	-3.6433398e-06
51	0xb5d93778	-1.6183903e-06
52	0xb3d4a8d5	-9.90273e-08
53	0xb63797ce	-2.7357487e-06
54	0xb62c10e0	-2.563982e-06
55	0x361cff8d	2.3394562e-06
56	0xb5a7d5c6	-1.2504686e-06
57	0xb635269c	-2.6993575e-06
58	0xb622c9db	-2.4257376e-06
59	0xb66dba5e	-3.5424232e-06
60	0xb6438ffc	-2.9141074e-06
61	0x3659dd69	3.2464397e-06
62	0xb654ccdf	-3.1709712e-06
63	0xb6746a77	-3.6420804e-06
64	0xbd8c8d0d	-0.06862841
65	0xbe37f81e	-0.17965743
66	0xbda0bc16	-0.078483745
67	0xbe9672c0	-0.29384422
68	0x3c2f0f77	0.010684839
69	0x3c52a3d9	0.012856447
70	0x3efebff4	0.49755824
71	0x3e488fb1	0.19586064
72	0xbd8cf499	-0.06882591
73	0xbdfe7df7	-0.1242637
74	0xbe2e4149	-0.17017092
75	0x3e0061d7	0.12537323
76	0x3d991a93	0.07475772
77	0xbea6bfaf	-0.32568118
78	0x3ef708a4	0.4824878
79	0x3dddb31a	0.108251765
80	0xbe3296e3	-0.17440371
81	0x3d190f96	0.03736838
82	0x3cd01267	0.0253994
83	0x3e6d5abc	0.23179144
84	0x3de2c8dd	0.11073468
85	0x3de07d83	0.109614395
86	0x3d3a0f5e	0.04542481
87	0x3e48f343	0.19624047
88	0x3d93727a	0.07199569
89	0x3d81d4f7	0.06339448
90	0xbe5ba91d	-0.2145123
91	0xbd401231	-0.04689235
92	0xbee1b84f	-0.4408593
93	0x3c9f0812	0.019413028
94	0x3e3b7de0	0.18309736
95	0x3e7baac1	0.24576856
96	0xbc66b178	-0.014080398
97	0x3c2f6c45	0.010706966
98	0xbdaad4d4	-0.08341375
99	0xbdc5532f	-0.09635007
100	0xbef2ec86	-0.47446078
101	0xbd3b414e	-0.045716576
102	0x3d7dd73f	0.061972853
103	0x3f161e5c	0.58640075
104	0xbd56ef3e	-0.052474253
105	0xbd4dbb5e	-0.050227515
106	0xbd521220	-0.051286817
107	0x3dfbfe56	0.1230437
108	0x3ec2caa9	0.38045242
109	0x3dd27839	0.10276837
110	0x3e23383a	0.15939417
111	0xbe8e5b05	-0.27803817
112	0xb3f2c0bb	-1.13040606e-07
113	0xb5df6f2d	-1.6647151e-06
114	0x35510322	7.7863126e-07
115	0xb6758858	-3.6587207e-06
116	0x3606728f	2.0034238e-06
117	0xb5d53dcf	-1.5887725e-06
118	0x365d0bd2	3.2938447e-06
119	0xb60f0752	-2.1312921e-06
120	0xb63a0540	-2.7719216e-06
121	0xb6674b1f	-3.4465409e-06
122	0xb621c693	-2.4106455e-06
123	0x35f8f92c	1.8549958e-06
124	0xb601afe6	-1.9324884e-06
125	0x361c5e33	2.3300643e-06
126	0x36291f17	2.520106e-06
127	0xb53d5ad9	-7.054019e-07

weight f4 [16]
0	0x3f3182e2	0.69340336
1	0x3f7b500f	0.98169035
2	0x3fe3d2ef	1.7798747
3	0x3fd37edc	1.652309
4	0x3fcc353a	1.5953743
5	0x3fda76f3	1.706755
6	0xb6432e0c	-2.9084067e-06
7	0xb5eaabf2	-1.7484401e-06
8	0x3f1be180	0.6089096
9	0x3ef60b04	0.4805528
10	0x3f122e92	0.5710231
11	0x3f3d11cd	0.73855287
12	0x3f8be047	1.0927819
13	0x3f4fc3a8	0.8115792
14	0x366c8d4c	3.5248986e-06
15	0x35a65eb7	1.239553e-06

bias f4 [16]
0	0xbd3e8fb8	-0.04652378
1	0xbdd5aedb	-0.10433742
2	0xbf29da04	-0.6634829
3	0xbf5c65d2	-0.86092865
4	0xbf1d33fd	-0.6140745
5	0xbf2b574e	-0.6693009
6	0x35ca2fe5	1.5064112e-06
7	0x3673aa57	3.6308973e-06
8	0xbe1dc930	-0.15408778
9	0xbc6a6e55	-0.014308532
10	0xbd8900b2	-0.06689586
11	0xbdf50536	-0.119638845
12	0xbe92e0c1	-0.286871
13	0xbf0a568a	-0.540383
14	0xb5b7aa91	-1.3684204e-06
15	0xb655d07f	-3.1860834e-06

running_mean f4 [16]
0	0x3b98282e	0.0046434617
1	0x3bc85863	0.006114052
2	0x3ad9a32f	0.0016604419
3	0xbabdc13f	-0.0014477147
4	0x3abb2e2d	0.0014280729
5	0xbabfa387	-0.0014620879
6	0x2e825252	5.9263386e-11
7	0xaf01837c	-1.1779194e-10
8	0x3b09eb3e	0.0021044756
9	0x3ab77cca	0.0013998982
10	0x39f02602	0.00045804685
11	0x3b29a6f5	0.0025886868
12	0xb903f928	-0.00012585951
13	0xb8c3e9c0	-9.341864e-05
14	0x2e822340	5.917977e-11
15	0x2c6f3fa6	3.3999275e-12

running_var f4 [16]
0	0x3c9813f6	0.018564206
1	0x3d2900e3	0.04126061
2	0x3d4c7af1	0.049921934
3	0x3d341170	0.043961942
4	0x3d87ea7e	0.06636523
5	0x3d52fa11	0.051508013
6	0x26960412	1.0409444e-15
7	0x2720508d	2.2248127e-15
8	0x3c8912d3	0.016732609
9	0x3c41d7ce	0.011831237
10	0x3c9923ac	0.018693767
11	0x3c1d68ef	0.009607538
12	0x3cc51619	0.024058389
13	0x3c91ecfa	0.017813195
14	0x26582f85	7.5004455e-16
15	0x26a5ee26	1.1513725e-15

weight f4 [16, 1, 1, 31]
0	0x3e3667b0	0.17812991
1	0x3e0e9dfb	0.13927452
2	0xbc8e6e2b	-0.017386517
3	0xbe7f876c	-0.24954003
4	0xbebeaeab	-0.37242636
5	0xbe0d91db	-0.1382517
6	0x3df26801	0.118362434
7	0x3e2b5d3f	0.1673479
8	0x3ab8977b	0.0014083231
9	0x3ce26cf8	0.027639851
10	0x3e964c3a	0.2935503
11	0x3e9ca067	0.30591127
12	0x3db61023	0.088897966
13	0xbe4435bc	-0.19161123
14	0xbe46643e	-0.19374177
15	0xbd966a5c	-0.07344505
16	0xbd10a1d5	-0.035310585
17	0xbe15a0b1	-0.1461208
18	0xbe1ff631	-0.15621258
19	0xbd7db990	-0.061944544
20	0x3d9a6b44	0.075399905
21	0x3e26e84f	0.16299556
22	0x3e0c51a2	0.13703015
23	0xbc7cf215	-0.015438576
24	0xbd651598	-0.055928797
25	0x3e036c52	0.1283429
26	0x3e59637d	0.21229358
27	0x3e06fb9e	0.13181922
28	0xbd113e6f	-0.035459932
29	0xbcd215fe	-0.025645252
30	0x3df9e5a4	0.122020036
31	0xbe18a48d	-0.14906521
32	0xbe35b232	-0.17743757
33	0xbe693e8a	-0.22777763
34	0xbda32cd1	-0.079675324
35	0x3e840836	0.25787514
36	0x3e9ea091	0.30981877
37	0x3e303f9b	0.17211764
38	0x3e1d86fb	0.15383522
39	0x3e03f8a3	0.12887816
40	0xbc86e9cf	-0.01646891
41	0xbe158043	-0.14599709
42	0xbe9aa43e	-0.30203432
43	0xbe519a64	-0.20469052
44	0xbd3a58ce	-0.045494847
45	0x3e0e35b6	0.13887677
46	0x3e366556	0.17812094
47	0x3e0056a3	0.1253305
48	0x3d3a2c60	0.045452476
49	0x3d300a95	0.04297884
50	0x3e075f13	0.13219862
51	0x3e33a4e7	0.17543374
52	0x3ca223ad	0.019792402
53	0xbe3935a3	-0.18086867
54	0xbe017550	-0.12642407
55	0x3e136bdd	0.14396615
56	0x3e271fd6	0.16320738
57	0xbbfe45e6	-0.0077597974
58	0xbdb0d2ce	-0.08633958
59	0xbd864fbe	-0.06558178
60	0xbc828831	-0.015934082
61	0x3d90ef8b	0.07076939
62	0xbe14ab6a	-0.14518514
63	0xbe2b7c8c	-0.1674673
64	0xbdaaf4f4	-0.08347502
65	0xbc5f9ffd	-0.013648984
66	0xbcfdfede	-0.03100532
67	0xbd6e53c2	-0.058185346
68	0x3d7d2783	0.06180526
69	0xbd23b0d4	-0.03996356
70	0xbd76a371	-0.060214464
71	0xbd9cf959	-0.07664747
72	0x3c403fd7	0.011733971
73	0x3d8a671b	0.06757947
74	0x3dc64874	0.09681788
75	0x3e01867e	0.12648961
76	0x3e16552c	0.14680928
77	0x3db634e0	0.08896804
78	0x3d005853	0.031334233
79	0x3b65d161	0.0035067427
80	0x3d91d4b6	0.071206495
81	0x3e8ef0a8	0.2791798
82	0x3edb8867	0.42877504
83	0x3ea6665f	0.32499978
84	0x3e3a6b65	0.1820503
85	0x3e3b4a21	0.18289997
86	0x3e130df0	0.14360785
87	0x3d848ebb	0.06472536
88	0x3db2998d	0.08720694
89	0x3e0510f2	0.12994745
90	0x3b8669af	0.004101954
91	0xbe5b654d	-0.21425362
92	0xbe65b319	-0.22431602
93	0xbe5a315a	-0.21307889
94	0xbdf1227d	-0.11774156
95	0xbdb8fd83	-0.090327285
96	0xbd560f45	-0.052260656
97	0xbdbc19a6	-0.091845796
98	0xbd9b251f	-0.0757544
99	0xbcb3dbab	-0.021955332
100	0x3e07253b	0.13197796
101	0x3dad49ad	0.08461318
102	0xbd4c4c20	-0.049877286
103	0x3d508d4e	0.05091601
104	0x3de46e30	0.11153829
105	0x3d98774c	0.07444629
106	0x3ceb4e40	0.028723836
107	0x3d1e9657	0.038717594
108	0x3d02be96	0.03192004
109	0x3d2d46fb	0.04230402
110	0x3e07bba5	0.13255174
111	0x3e8231e5	0.25428692
112	0x3ebfa86e	0.3743319
113	0x3ea44b9c	0.32088935
114	0x3e377abf	0.17917918
115	0x3e3cfd27	0.18455945
116	0x3ea41810	0.32049608
117	0x3e9171a7	0.28407022
118	0x3e00f4a4	0.12593323
119	0xbd6811f1	-0.056657735
120	0xbdc1d1cf	-0.09463846
121	0xbe0d8423	-0.13819937
122	0xbe136fd3	-0.14398126
123	0xbdf89043	-0.12136891
124	0xbddf7f73	-0.10912981
125	0xbcdaed7c	-0.02672457
126	0xbc61e7a5	-0.0137881385
127	0x3dd6911b	0.104768954
128	0xbc1ab5eb	-0.009442787
129	0xbe174879	-0.1477374
130	0xbc687c02	-0.014189722
131	0x3ddcfcd0	0.10790408
132	0x3de1565c	0.110028
133	0x3da2581a	0.0792696
134	0xbdbced9a	-0.092250064
135	0xbd975eed	-0.073911525
136	0xbde82f47	-0.113371424
137	0xbdced86c	-0.10099873
138	0x3dd965ee	0.10615145
139	0x3db1841f	0.08667778
140	0x3d0429e2	0.032266505
141	0x3d18e2fe	0.03732585
142	0x3d3e66c5	0.046484727
143	0x3e6c5ef5	0.23083098
144	0x3ed97f82	0.42480093
145	0x3e10d17d	0.14142413
146	0x3e0923a4	0.13392502
147	0x3e193451	0.14961363
148	0x3e122573	0.14272098
149	0x3e06e8f0	0.13174796
150	0x3e29915c	0.16559356
151	0x3d869083	0.06570532
152	0x3e148187	0.14502536
153	0x3e4c04b9	0.19923677
154	0x3eb75195	0.3580443
155	0xbd1e5831	-0.038658325
156	0x3e321c36	0.17393574
157	0x3dfcdd47	0.12346893
158	0xbe20c031	-0.15698315
159	0x3d370496	0.044682108
160	0x3e245259	0.16047038
161	0x3d6c7faa	0.057738937
162	0xbc752096	-0.014961382
163	0xbd6d6b99	-0.05796394
164	0xb8b7a167	-8.7561835e-05
165	0x3e445114	0.19171554
166	0x3c6cd626	0.014455354
167	0xbdc6481d	-0.09681723
168	0xbe040e1e	-0.1289601
169	0xb7d98a42	-2.5932797e-05
170	0x3dc6ae3b	0.097012006
171	0x3d9a75cf	0.075420015
172	0x3de8b70f	0.11363041
173	0x3d0c2b25	0.034220833
174	0xbe506975	-0.20352729
175	0xbd8bac0e	-0.06819926
176	0x3eef39ba	0.4672373
177	0x3e9b96ce	0.30388492
178	0x3e00fdf9	0.12596883
179	0x3dad8fae	0.0847467
180	0x3e381d62	0.17979959
181	0x3e7573cd	0.23969956
182	0x3d9452fa	0.07242389
183	0x3e08674a	0.13320652
184	0x3e935889	0.28778484
185	0x3e538fca	0.2066032
186	0xb591666c	-1.083315e-06
187	0x3604b832	1.9776749e-06
188	0x34275605	1.5584381e-07
189	0xb66c6014	-3.5222665e-06
190	0x3614f590	2.2196655e-06
191	0x363d7ccf	2.8235843e-06
192	0x35b8da1f	1.377255e-06
193	0x365def12	3.3070723e-06
194	0x3673fc13	3.6356548e-06
195	0x357e4979	9.472929e-07
196	0xb6480175	-2.980317e-06
197	0xb64d81e3	-3.0622984e-06
198	0xb5cd98c0	-1.5318146e-06
199	0xb63d64a4	-2.8221775e-06
200	0x359ce916	1.1690743e-06
201	0x366b25bc	3.5039693e-06
202	0x35b8e4be	1.3775641e-06
203	0x36178fe3	2.2584506e-06
204	0x365bc6da	3.274929e-06
205	0x362bc036	2.5592867e-06
206	0xb60276af	-1.9440592e-06
207	0xb6645428	-3.4023633e-06
208	0x3443cc70	1.8235164e-07
209	0xb677a5b8	-3.690233e-06
210	0xb6552358	-3.1760046e-06
211	0xb6765408	-3.670577e-06
212	0x365833e3	3.221671e-06
213	0x36331d15	2.6690007e-06
214	0x365f617a	3.3286328e-06
215	0x361b87c4	2.3175826e-06
216	0x366a7405	3.493625e-06
217	0x36619b8a	3.3618148e-06
218	0x36748e8b	3.6441804e-06
219	0xb62d6191	-2.58358e-06
220	0x35ad13a3	1.289522e-06
221	0x35f07634	1.7915795e-06
222	0x361aa376	2.3042935e-06
223	0x3675badf	3.6616618e-06
224	0x36648424	3.4051563e-06
225	0xb5a78fa9	-1.248428e-06
226	0xb61a0f88	-2.2956829e-06
227	0x365fa92b	3.3328058e-06
228	0x32f86a9f	2.8919485e-08
229	0xb61aa5eb	-2.3044365e-06
230	0xb66a556e	-3.4918444e-06
231	0xb5b08f85	-1.3154792e-06
232	0xb59106e2	-1.0805345e-06
233	0xb53c564e	-7.016105e-07
234	0x365e3743	3.3112744e-06
235	0xb6011e32	-1.9240074e-06
236	0xb657d831	-3.2163337e-06
237	0x3509f1a1	5.1388093e-07
238	0xb58af278	-1.0352369e-06
239	0x365efc6b	3.3227504e-06
240	0xb5e2a861	-1.6887317e-06
241	0xb5a4435d	-1.2238557e-06
242	0x364a7088	3.0165847e-06
243	0x365d1b1b	3.2947344e-06
244	0xb6629a81	-3.3766557e-06
245	0xb5fee7c3	-1.8991926e-06
246	0x3675e681	3.6642016e-06
247	0x351045b1	5.3745595e-07
248	0x3e126dd6	0.14299712
249	0x3d9e2c15	0.07723252
250	0x3d99c288	0.07507807
251	0x3da25186	0.079257056
252	0x3db50685	0.08839134
253	0x3ce26644	0.027636655
254	0x3c3a966c	0.011388402
255	0xbd07073c	-0.032965884

weight f4 [16, 16, 1, 1]
0	0x3ce9f13e	0.028557416
1	0xba9bdd8b	-0.0011891586
2	0xbe398c76	-0.18119988
3	0xbe5d7d66	-0.21629867
4	0x3e4055ef	0.18782781
5	0x3e5194f1	0.20466973
6	0xb65562ac	-3.1796908e-06
7	0xb6420356	-2.8910194e-06
8	0x3d8181a6	0.063235566
9	0xbe017497	-0.12642132
10	0x3dc930b5	0.09823743
11	0xbd8bf556	-0.068339035
12	0x3e4eb59a	0.20186463
13	0xbe475f1c	-0.19469875
14	0x36609277	3.3463855e-06
15	0x36768e4e	3.6739689e-06
16	0xbbf0daa4	-0.0073502827
17	0x3d82b33a	0.06381841
18	0xbe33d69f	-0.1756234
19	0xbe4235fe	-0.18965909
20	0x3e52686c	0.20547646
21	0x3e5174e6	0.2045475
22	0xb660e095	-3.3509325e-06
23	0x338f9bde	6.6873085e-08
24	0x3e31774a	0.17330661
25	0xbe05dbd9	-0.13072146
26	0x3db7a5ec	0.08967194
27	0xbdbef633	-0.093243025
28	0x3dc95c8f	0.09832107
29	0xbe1d30b8	-0.15350616
30	0x36120c6c	2.1762926e-06
31	0x36788c3e	3.7036511e-06
32	0x3e49efc4	0.1972037
33	0xbe8323b3	-0.25613174
34	0xbca79207	-0.020455373
35	0x3d9b7eb3	0.07592525
36	0xbd8741d9	-0.06604356
37	0x3c59799d	0.013273624
38	0x3575337c	9.134453e-07
39	0xb5cfc1c2	-1.5479093e-06
40	0xbe27e114	-0.16394454
41	0x3db8ec25	0.09029416
42	0xbdb9346c	-0.09043202
43	0x3d871522	0.06595828
44	0x3e120422	0.14259389
45	0xbdd69156	-0.104769394
46	0xb66d0958	-3.532119e-06
47	0x348fad29	2.6761816e-07
48	0x3e9a3af1	0.30123094
49	0xbea665a4	-0.3249942
50	0xbd151a74	-0.03640218
51	0x3c236b6e	0.009974344
52	0xb8c4f5aa	-9.391767e-05
53	0xbdff3360	-0.12460971
54	0xb5db67cb	-1.6346979e-06
55	0x348d6fbd	2.6344597e-07
56	0xbd9917a8	-0.07475215
57	0xbd59c145	-0.05316283
58	0xbc899322	-0.016793791
59	0x3d932075	0.07183925
60	0x3de08718	0.10963267
61	0xbdc3ae4a	-0.095547274
62	0xb6585705	-3.223716e-06
63	0x366080bf	3.3453541e-06
64	0x3e9be3b7	0.3044717
65	0xbe94f0e1	-0.29090026
66	0xbd7ad8c0	-0.061241865
67	0x3b375bc7	0.0027978288
68	0xbc90c030	-0.017669767
69	0xbda224c3	-0.07917168
70	0xb609a0cf	-2.0508194e-06
71	0x36477ac3	2.9724768e-06
72	0xbd8c0a4b	-0.06837901
73	0x3c8ce059	0.017196821
74	0x3cdd7d91	0.027037414
75	0x3e018fbc	0.12652487
76	0x3e1314b7	0.14363371
77	0xbde6a127	-0.11261206
78	0xb5eeaa8d	-1.7782019e-06
79	0x36671fd3	3.4440206e-06
80	0x3e91f483	0.2850686
81	0xbe8397ee	-0.2570185
82	0xbd1a273c	-0.037635073
83	0xbce48b8c	-0.027898572
84	0xbc67af85	-0.014140968
85	0xbd66e65a	-0.056372024
86	0xb619cfd1	-2.2919742e-06
87	0x36536fa8	3.1506443e-06
88	0xbdc3b606	-0.095562026
89	0xbb930fc1	-0.004487962
90	0x3d57ab0a	0.05265335
91	0x3e02b540	0.12764454
92	0x3e43f559	0.19136561
93	0xbd8ae929	-0.06782753
94	0xb4d25a0d	-3.918107e-07
95	0x3646f191	2.964491e-06
96	0x3d28de80	0.041227818
97	0xbd278d3c	-0.040906176
98	0x3db3b31f	0.08774399
99	0x3ddd10e6	0.10794239
100	0xbe27607c	-0.163454
101	0xbdf05240	-0.11734438
102	0x353355f0	6.680775e-07
103	0xb62810fe	-2.5043842e-06
104	0xbe500279	-0.20313443
105	0x3e672885	0.2257405
106	0xbe9e07d1	-0.30865338
107	0x3e1f4164	0.15552288
108	0x3d18853c	0.037236437
109	0xbe102335	-0.1407593
110	0xb673ca8f	-3.6327726e-06
111	0xb642ba85	-2.9016821e-06
112	0xbd397e0b	-0.04528622
113	0xbb8c6047	-0.004283938
114	0xbdcc3b1f	-0.09972214
115	0xbe5ab94b	-0.21359746
116	0x3e159af2	0.14609888
117	0x3e476c37	0.19474874
118	0xb638732e	-2.748518e-06
119	0x3611d53b	2.17308e-06
120	0x3e8ce2d2	0.275168
121	0xbe490ddf	-0.19634198
122	0x3df6359d	0.12021945
123	0xbd648435	-0.055790145
124	0x3d45b660	0.04826963
125	0xbdab11d5	-0.083530106
126	0x365adfce	3.2614803e-06
127	0x3673df5c	3.6339834e-06
128	0x3e823928	0.25434232
129	0xbe908294	-0.28224623
130	0xbd046041	-0.032318357
131	0x3cdeeb7e	0.0272119
132	0xbc1aa1e6	-0.009438014
133	0xbdc6a8d3	-0.097001694
134	0xb673ebdb	-3.6347108e-06
135	0x35db5c84	1.6343697e-06
136	0xbd19cb91	-0.03754765
137	0xbc852e47	-0.016257418
138	0xbb9a787c	-0.00471407
139	0x3dc69fc7	0.09698444
140	0x3e0d5bd6	0.13804564
141	0xbe0832a3	-0.13300566
142	0xb3cad15f	-9.4444424e-08
143	0x362a0344	2.5333875e-06
144	0x3d54fa14	0.051996306
145	0xbd803ceb	-0.06261619
146	0x3dcbc9ff	0.09950637
147	0x3da8d472	0.08243646
148	0xbdeb8174	-0.114993006
149	0xbde6af99	-0.11263961
150	0x364e0edb	3.070504e-06
151	0xb60cb23b	-2.096537e-06
152	0xbe78c284	-0.24292952
153	0x3e45a73b	0.19302075
154	0xbe87d9f1	-0.26533464
155	0x3e248eeb	0.16070144
156	0x3bf4f1b5	0.007475103
157	0xbe26c7bc	-0.1628713
158	0xb635224c	-2.6991065e-06
159	0xb62a2ea9	-2.5359134e-06
160	0xbd3b6d0e	-0.0457583
161	0x3b49a445	0.0030768078
162	0xbde0de1b	-0.10979863
163	0xbe3f0f0a	-0.1865808
164	0x3e58da18	0.21176946
165	0x3e44c6ac	0.19216412
166	0xb5ccb128	-1.5250744e-06
167	0xb65cbb7f	-3.2891692e-06
168	0x3e87b12d	0.26502362
169	0xbe13bed4	-0.14428264
170	0x3dd03bcf	0.101676576
171	0xbd9bbabf	-0.07603978
172	0x3dfb13e3	0.122596525
173	0xbe297a72	-0.16550615
174	0x366c18a1	3.5181076e-06
175	0x3676ae53	3.6758327e-06
176	0x3ea851fa	0.32875043
177	0xbe8e48de	-0.27789968
178	0xbd4c7a96	-0.049921595
179	0x3ce426a8	0.027850464
180	0xbcf76eec	-0.030204259
181	0xbdd4d70f	-0.10392582
182	0xb66b90d2	-3.5102025e-06
183	0xb6556332	-3.1797213e-06
184	0x3c03f3c6	0.008053726
185	0xbcb9dbb3	-0.022687769
186	0xbc73c158	-0.01487764
187	0x3daa7a8a	0.08324154
188	0x3e351110	0.1768229
189	0xbdf2e536	-0.11860125
190	0xb66c68ed	-3.5227815e-06
191	0xb6542e97	-3.161758e-06
192	0x3d6a6307	0.057223346
193	0x3b89bdff	0.0042035575
194	0xbe476672	-0.19472674
195	0xbe7a1ec6	-0.24425802
196	0x3e36b073	0.17840748
197	0x3e2c90c3	0.16852097
198	0xb6589f19	-3.2279115e-06
199	0x366efd88	3.5612338e-06
200	0x3df49e27	0.11944228
201	0xbe15d325	-0.14631326
202	0x3de16969	0.110064335
203	0xbd8f7424	-0.07004574
204	0x3e3889ee	0.18021366
205	0xbde35d0d	-0.111017324
206	0x365c320f	3.2811693e-06
207	0x36729a72	3.615071e-06
208	0x3dbe9f8e	0.093077764
209	0xbc71ecc3	-0.014765921
210	0xbe25dcc8	-0.16197503
211	0xbe559df8	-0.20861042
212	0x3e40ff1e	0.1884732
213	0x3e6a0206	0.22852334
214	0xb5ce8828	-1.5387823e-06
215	0x3666f1d4	3.4413433e-06
216	0x3dc6d59f	0.09708714
217	0xbdd95e0f	-0.106136434
218	0x3de30e6a	0.11086734
219	0xbd9d73ec	-0.07688126
220	0x3e47340b	0.19453447
221	0xbe570221	-0.20996906
222	0x365d6997	3.2993028e-06
223	0x366fa836	3.5711687e-06
224	0x3cb2fa73	0.02184794
225	0x3c68aac8	0.014200874
226	0xbe687c7d	-0.22703739
227	0xbe7c7c8f	-0.2465689
228	0x3e3381f5	0.17530043
229	0x3e4bed6f	0.19914792
230	0x35d1fdce	1.564558e-06
231	0xb66523cf	-3.4144502e-06
232	0x3d85f263	0.06540372
233	0xbdcc48ed	-0.09974847
234	0x3dea27e9	0.114333935
235	0xbde7059a	-0.11280365
236	0x3dd475cd	0.10374031
237	0xbe48a472	-0.19593981
238	0x367515e0	3.6520578e-06
239	0x3676245e	3.6678025e-06
240	0x3e225852	0.15854004
241	0xbc2c16dd	-0.010503498
242	0xbe3a6132	-0.1820114
243	0xbe80cfc7	-0.25158522
244	0x3e455980	0.19272423
245	0x3e24abe2	0.16081193
246	0xb4c76420	-3.713949e-07
247	0x35dab2c7	1.6294297e-06
248	0x3da75fa6	0.0817254
249	0xbd529215	-0.051408846
250	0x3daddbb1	0.084891684
251	0xbdd52ff4	-0.10409537
252	0x3e43040e	0.19044515
253	0xbe11cd3e	-0.1423845
254	0x363c061a	2.8017735e-06
255	0x3675f931	3.6652893e-06

weight f4 [16]
0	0x3f985ee4	1.1903958
1	0x3fab7ce1	1.3397485
2	0x3f8a0db9	1.0785438
3	0x3fb336d1	1.4001104
4	0x3fbb21ab	1.461965
5	0x3fa4e39b	1.288196
6	0x3fa5dfdc	1.2958941
7	0x3fab0aab	1.3362631
8	0x3fa32e33	1.2748474
9	0x3f9bea97	1.2180966
10	0x3fa91d23	1.3212017
11	0x3fac52c4	1.3462758
12	0x3f9c155d	1.219402
13	0x3faf401f	1.3691443
14	0x3f96e5e6	1.178891
15	0x3f9fc053	1.2480568

bias f4 [16]
0	0x3e96c15a	0.2944439
1	0x3ea68a0c	0.32527196
2	0xbda9b802	-0.0828705
3	0xbdf83de8	-0.12121183
4	0xbdb27d08	-0.08715254
5	0xbdd6cb48	-0.104879916
6	0x3d9a16ce	0.07523881
7	0x3eacd528	0.33756375
8	0xbe14c6b1	-0.1452892
9	0x3db5d09c	0.0887768
10	0x3ea92285	0.3303415
11	0xbe1a30d7	-0.15057693
12	0x3e921c53	0.28537235
13	0x3e9f87f0	0.311584
14	0x3e9a281d	0.3010873
15	0x3e8ffbad	0.281217

running_mean f4 [16]
0	0x3dfbc8f5	0.12294189
1	0x3d95725a	0.072972015
2	0x3d69904f	0.05702239
3	0x3dac7eee	0.084226474
4	0x3dd247fd	0.10267637
5	0x3dbc4b07	0.09193998
6	0x3df2d143	0.1185632
7	0x3d283001	0.041061405
8	0x3dd4add0	0.103847146
9	0x3e0f4255	0.13990147
10	0x3da7b023	0.08187892
11	0x3dcdb710	0.10044682
12	0x3dbb7f28	0.091551125
13	0x3e0596da	0.13045827
14	0x3e08536f	0.13313077
15	0x3df3d3c2	0.11905624

running_var f4 [16]
0	0x3eaa0e65	0.33214107
1	0x3e9ff4eb	0.31241545
2	0x3e5237d5	0.2052911
3	0x3e8b49d3	0.2720476
4	0x3e878dc4	0.26475346
5	0x3e697af1	0.22800805
6	0x3e6fa764	0.23403698
7	0x3ea978aa	0.33099872
8	0x3e60325a	0.21894208
9	0x3e6090cf	0.2193024
10	0x3ea80922	0.32819468
11	0x3e897475	0.26846662
12	0x3eaf9dde	0.3430013
13	0x3eab548a	0.33462936
14	0x3eadfd22	0.33982188
15	0x3eab9602	0.33512884

weight f4 [2, 16, 1, 132]
0	0x3a848a3a	0.0010111996
1	0xbb488ec1	-0.0030602666
2	0x3b03d40d	0.0020115406
3	0x3a99579d	0.0011699084
4	0x3b3ce682	0.0028823917
5	0x3bb06b7f	0.0053839083
6	0x3b43fc6a	0.002990509
7	0x3a26bc96	0.0006360499
8	0x3b85d28e	0.004083938
9	0x3bcbe5c2	0.0062224576
10	0x3b920416	0.0044560535
11	0x3b8e860a	0.004349475
12	0x3a6e74fb	0.0009096411
13	0x3b9dd40c	0.0048165377
14	0xbb51c660	-0.003200911
15	0xbb335d49	-0.0027368835
16	0x3aa724e2	0.0012752081
17	0xbc0d2736	-0.008615306
18	0xbb8a0f4b	-0.004213249
19	0x39eb9dd6	0.0004494029
20	0x3c288217	0.010284922
21	0x3c666c59	0.014063918
22	0x3bc75da0	0.006084159
23	0x3bb4fe84	0.0055235047
24	0x3c0017a8	0.00781814
25	0x3c20937d	0.009800789
26	0x3c856d73	0.016287541
27	0x3c3c118d	0.011478794
28	0x3c2bb324	0.010479722
29	0x3b2d3371	0.0026428367
30	0xb9eb72b9	-0.00044908168
31	0xbae805a3	-0.0017701875
32	0x3b91c51f	0.0044485475
33	0x3b1994b0	0.0023434572
34	0x3c2380a7	0.009979404
35	0x3b951f16	0.004550825
36	0x3b950b3b	0.004548458
37	0x3b885084	0.004159989
38	0xb9c4886b	-0.00037485673
39	0xbb33fa12	-0.0027462286
40	0xba468ea1	-0.0007574354
41	0xbb26a948	-0.002543049
42	0x3a7e1ce5	0.00096936367
43	0x3ba8a8a4	0.0051470567
44	0xbb1a74c4	-0.0023568133
45	0x3aad415b	0.001321833
46	0x3b09baef	0.0021015962
47	0x3b318072	0.0027084616
48	0x3ba427e8	0.00500964
49	0xbaa7810f	-0.0012779551
50	0xbad63c39	-0.0016344852
51	0x3adfb61c	0.0017067823
52	0x3a709b5e	0.0009178425
53	0x3ac12e59	0.0014738544
54	0x3b5b7582	0.0033486788
55	0x3b688360	0.0035478696
56	0xbad32aef	-0.0016110818
57	0x3962f881	0.00021645614
58	0xba0e99f2	-0.000543981
59	0xbad98925	-0.0016596658
60	0x3b716d09	0.0036838672
61	0xbac7a133	-0.0015230536
62	0xbbcc489c	-0.0062342416
63	0x3b5eda33	0.0034004569
64	0x3bffab50	0.0078024045
65	0x3c23215d	0.009956685
66	0x3b26f6df	0.0025476736
67	0xba908f14	-0.0011028969
68	0x3a20f060	0.00061393343
69	0x3bf4563c	0.007456569
70	0x3c686ead	0.014186543
71	0x3c6a971b	0.014318253
72	0x3c517b69	0.012785771
73	0x3a271aaa	0.00063745177
74	0xba023ca2	-0.00049681414
75	0x3aaff892	0.001342552
76	0x3b8b7584	0.0042559523
77	0x3b78a690	0.0037941076
78	0x3baaf460	0.00521712
79	0x3b8b7673	0.0042560636
80	0x3b5eb6f7	0.0033983567
81	0x3b44e065	0.0030040976
82	0xba51e10c	-0.0008006252
83	0xbb908683	-0.0044105663
84	0x3b29e5d6	0.0025924346
85	0xbae80249	-0.0017700876
86	0xba9ed777	-0.0012118657
87	0x3b5caa07	0.003367068
88	0x3850df88	4.9799244e-05
89	0x3a0f2ae8	0.00054614106
90	0xbb1464fb	-0.0022643197
91	0x3b3d6c15	0.0028903533
92	0xb9fafc6d	-0.00047871788
93	0x39b3fbc8	0.00034329132
94	0x3b6b78ca	0.003593015
95	0x3afdb5a9	0.0019356507
96	0xba955d7a	-0.0011395656
97	0x3a887311	0.0010410269
98	0x390359c8	0.0001252658
99	0xbad9ef12	-0.0016627035
100	0x3ac032cf	0.001466358
101	0xbb8032ff	-0.003912329
102	0xbb908afc	-0.0044110995
103	0xbb354220	-0.0027657822
104	0xb96749b6	-0.00022057336
105	0xbb476803	-0.0030426986
106	0xbb0b9fa0	-0.002130486
107	0xbaa28fff	-0.0012402533
108	0x3c06ef12	0.00823571
109	0x3c453897	0.012037418
110	0x3bdd99b8	0.0067627095
111	0x3b80db90	0.003932424
112	0x3bad18a7	0.00528248
113	0x3c08bf93	0.008346456
114	0x3c834746	0.016025197
115	0x3c3e4d8c	0.011615168
116	0x3bb3aadd	0.005483015
117	0x3a2ecf43	0.00066684576
118	0xbb72d755	-0.0037054617
119	0xbb8479d3	-0.004042843
120	0x3b19372a	0.0023378828
121	0xba583377	-0.0008247415
122	0x3a8b2e5d	0.0010618676
123	0x3b8d5350	0.00431291
124	0x3b5b90f7	0.0033503154
125	0xb92a998a	-0.00016269661
126	0xbbb27078	-0.005445536
127	0xbb3c9e60	-0.0028780922
128	0xba2e6943	-0.00066532585
129	0x3b8e3f2d	0.0043410272
130	0x3b5fbf64	0.0034141177
131	0x3b06a684	0.0020546028
132	0x3b95cb11	0.0045713265
133	0x3ae0d903	0.0017154518
134	0xbb669bcb	-0.0035188075
135	0x3a22aa7e	0.0006205215
136	0x3c02873a	0.007966811
137	0x3a0e73bd	0.00054341165
138	0x3b26640b	0.002538922
139	0x3b5b889a	0.003349817
140	0x3b866c93	0.0041022985
141	0x3beedf4f	0.007289804
142	0x3b561941	0.003266886
143	0x3b97afd2	0.0046291137
144	0xb9a30f2f	-0.00031101095
145	0x3b5ff172	0.0034171012
146	0xbaea72c4	-0.0017886986
147	0xbbd368a1	-0.0064516817
148	0xbb6f11b1	-0.003647905
149	0xbb9a465a	-0.0047080936
150	0xbbe990e0	-0.007127866
151	0xba85938b	-0.0010191066
152	0x3c0394a8	0.008031048
153	0x3c548c55	0.012972911
154	0x3c3ce2f6	0.011528721
155	0x3be0ef47	0.0068644616
156	0x3bb7c620	0.005608335
157	0x3c298633	0.010346937
158	0x3c914521	0.017733159
159	0x3c8eb486	0.017420065
160	0x3c24ac4c	0.010050844
161	0x3b102945	0.0021997255
162	0xbae200ed	-0.0017242708
163	0x3a86ca37	0.0010283653
164	0x3bdefc4b	0.006804978
165	0x3b64ca41	0.0034910592
166	0x3baae849	0.005215679
167	0x39d7b286	0.00041141006
168	0x3bd8293f	0.006596714
169	0x3b39b010	0.0028333701
170	0xba12784a	-0.00055873825
171	0xbac3c146	-0.0014934919
172	0xbab265cc	-0.001361066
173	0x39f2261c	0.0004618623
174	0x3b166875	0.0022950445
175	0x3b115061	0.0022173154
176	0x3aebd7ef	0.001799343
177	0x3b4d6e0b	0.0031346108
178	0x3b3717f1	0.0027937854
179	0x3aed458a	0.0018102389
180	0x3b9116c0	0.004427761
181	0xb8eaf5ea	-0.000112037946
182	0x3b134370	0.0022470616
183	0x3b1bea0f	0.0023790633
184	0xba8e0beb	-0.0010837292
185	0x3baf0df4	0.0053422395
186	0xb98a8c75	-0.0002642606
187	0x3ac24a81	0.0014823229
188	0x3ade7670	0.0016972553
189	0x395528fd	0.00020328532
190	0xbb80944a	-0.0039239274
191	0xbb16a114	-0.0022984194
192	0xb89beddc	-7.435281e-05
193	0xbb0b1d11	-0.0021227042
194	0xbc062b31	-0.008189009
195	0xbaae1ecd	-0.0013284326
196	0x3be5ffcc	0.0070190188
197	0x3c8a1a35	0.0168582
198	0x3bdf94e0	0.006823167
199	0x3babbdbc	0.005241124
200	0x3b70411b	0.00366599
201	0x3bcf78cc	0.006331539
202	0x3c32edd0	0.010920957
203	0x3c30738d	0.010769737
204	0x3ca32127	0.01991327
205	0x3b39d0e7	0.0028353275
206	0xbb1b41fb	-0.002369045
207	0x3b88d463	0.004175709
208	0x3b82f6ae	0.0039966917
209	0x3b5356b5	0.0032247726
210	0x3ae61a23	0.0017555397
211	0x3a85c7fc	0.0010206695
212	0x3b6e0443	0.0036318458
213	0x3bb75fa8	0.00559612
214	0xbbadfb25	-0.00530948
215	0xbb988697	-0.0046547162
216	0xb8165b10	-3.5847595e-05
217	0x3b1adbeb	0.0023629616
218	0xbba30d83	-0.004975976
219	0xbbab68df	-0.0052310075
220	0xb9d6b57f	-0.00040952486
221	0x3b57abf9	0.00329089
222	0x39ff2098	0.00048661674
223	0xbb332a80	-0.0027338564
224	0x3bb333e3	0.005468832
225	0x3aa3a905	0.0012486285
226	0x3b9ee34f	0.0048488746
227	0x3b5a51e1	0.0033312964
228	0x3b484389	0.0030557832
229	0x3a47974e	0.0007613794
230	0x3ada7a29	0.0016668487
231	0x3add0e3d	0.0016865205
232	0x3b5a6ff5	0.0033330892
233	0x39f34e66	0.00046406983
234	0x3a927992	0.0011175147
235	0xba9af401	-0.0011821986
236	0x3b49678a	0.003073188
237	0xbaad3d77	-0.001321717
238	0xbb869577	-0.004107173
239	0xbb31be83	-0.002712161
240	0x3bf41892	0.007449218
241	0x3c1f0dbc	0.009707864
242	0x3c3c3ea9	0.011489549
243	0x3c1f21a4	0.00971261
244	0x3c243f99	0.0100249285
245	0x3c68f1d3	0.014217812
246	0x3c7314f6	0.01483654
247	0x3c5fbe4e	0.013656212
248	0x3c347a73	0.011015522
249	0xbae7732d	-0.0017658226
250	0xbbb9ae17	-0.005666505
251	0xbb2918de	-0.0025802176
252	0x3ad2877a	0.0016062104
253	0x3bc30f9a	0.0059527876
254	0x3b18f942	0.0023341929
255	0x3bcc500f	0.0062351297

bias f4 [2]
0	0x3f24ff32	0.644519
1	0xbf24fe0e	-0.64450157
